src/python/wake-word/neuralnet/lstm_wakeword_rpi_v5.pt (torch, 125036 bytes, 21 tensors)

layernorm.weight f4 [40]
000000 a3 f5 80 40 25 4e 2f 40 ee 57 a4 3f 1e e8 63 40
       4.029985 2.7391446 1.2839334 3.5610423
000010 4f 24 14 40 a0 76 87 bf 72 84 28 40 6f a8 c7 be
       2.314716 -1.0583076 2.6330838 -0.38995692
000020 c5 60 07 c0 23 56 ce 3e 50 a6 b5 bd 88 2c d2 bf
       -2.1152813 0.40300092 -0.08869612 -1.641984
000030 2f db 03 bf a6 39 81 3f 79 71 6e c0 50 92 18 40
       -0.5150632 1.0095718 -3.7256758 2.3839302
000040 ca 2e 7c c0 6a 31 34 40 27 3c 1e bf 74 63 9d 3f
       -3.9403558 2.815516 -0.61810535 1.2295976
000050 c0 b7 02 c0 93 93 23 c0 30 d0 df 3f c5 06 90 bf
       -2.0424652 -2.5558822 1.7485409 -1.1252066
000060 22 7c 4d 3f 8b b3 35 c0 93 ac 45 c0 8a fe e7 bf
       0.80267537 -2.8390834 -3.088658 -1.8124554
000070 40 20 2d bf ad c6 10 bf 8c ce e4 be 46 6f 41 3e
       -0.67627335 -0.56553155 -0.44688833 0.18890104
000080 62 75 cb bf 5f 54 37 40 0c 17 0c c0 fc 62 ce bf
       -1.5895197 2.8645246 -2.1889067 -1.6123958
000090 02 01 89 c0 db 5d ed bf 1f 4a 17 c0 5a 16 27 3f
       -4.281373 -1.8544267 -2.363899 0.6526848

layernorm.bias f4 [40]
000000 02 f9 09 bd 04 9f c2 bc 62 05 06 bf 0e f7 6b bd
       -0.033684738 -0.023757465 -0.52351964 -0.057608657
000010 8b 05 7c bf 7f 26 15 40 63 dc 80 bf 14 4e 4b 3f
       -0.9844596 2.3304746 -1.0067257 0.7941601
000020 79 c5 42 bf 84 f3 e6 bd 71 f4 70 bf 48 2e ba 3f
       -0.7608257 -0.11276916 -0.9412299 1.4545374
000030 0d 6c 73 bd 18 b2 1c 3f 4b 11 e5 3f b1 3e 2c 3f
       -0.059429217 0.6120925 1.7895902 0.6728316
000040 34 a2 c8 3e 1c 04 d3 3e c2 f0 3c be 94 b1 93 be
       0.3918625 0.41214073 -0.18451217 -0.2884642
000050 d3 f5 2e 3f a2 9a 94 3f 6d fb 2a 3f b9 50 5c 3f
       0.6834385 1.160969 0.66789895 0.86060673
000060 14 8c b7 3e ab 75 67 3f ca d4 6b 3f 3c a1 9c 3f
       0.3584906 0.9041392 0.92121565 1.2236705
000070 34 74 8f 3f e3 e2 d8 3e 7b b3 8b 3f 19 b6 51 bf
       1.1207337 0.423606 1.0914148 -0.81918484
000080 6f 1d 7c 3e 4f f7 60 3e ec 9b d3 3f 8b 01 22 3f
       0.24620603 0.2196934 1.6531959 0.63283604
000090 63 a2 3c 3f c8 96 12 3f f3 4c 8b 3f 1e e1 31 3c
       0.7368528 0.57261324 1.0882858 0.010856895

lstm.weight_ih_l0 f4 [128, 40]
000000 b3 6c 56 be 0c 1c 23 3c 38 6d 45 bd d1 17 5f be
       -0.20939903 0.009955417 -0.048199862 -0.21786429
000010 5b 59 1a 3e e6 8d 9d 3d 24 53 9b 3c ab 62 b3 3d
       0.15073149 0.076930806 0.018960543 0.08759054
000020 41 13 8d bd f4 d8 a0 bd 00 32 19 bd c0 6f 96 3e
       -0.06888438 -0.078538805 -0.0374012 0.29382133
000030 14 63 e5 be b1 80 08 3e 40 c3 03 3e 98 14 57 3e
       -0.44802153 0.13330342 0.1286745 0.2100395
000040 ba 60 c4 3e 50 53 48 3d 02 45 d9 3b 11 41 24 3c
       0.38355047 0.048907578 0.006630541 0.010025279
000050 22 c3 0f bb 35 f6 95 3d a6 d1 53 3d 9d 02 9d 3c
       -0.0021936377 0.07322351 0.05171361 0.019166285
000060 ad fd bf 3d eb 3b 9e bd 51 c7 8b 3c 69 6e 3d 3e
       0.09374557 -0.07726272 0.017062815 0.1849915
000070 9f bc 90 3d de 91 09 3e 59 50 22 3d 42 3d 02 bd
       0.070672266 0.1343455 0.039627407 -0.0317967
000080 26 6d df be ea 30 69 3e 10 39 66 3d b2 92 e1 3c
       -0.4363796 0.22772565 0.056206763 0.02753577
000090 0f c3 a1 3b cf f8 f9 3d 9a 7e d0 3e 79 9b 36 be
       0.004936583 0.122056596 0.4072159 -0.17832746
0000a0 9c ad 9b bf b1 7e 73 bf 4f e9 70 bf 50 c3 88 bf
       -1.2162356 -0.9511519 -0.94106 -1.0684605
0000b0 b8 02 5b bf ab ef 9e 3f 4f 94 82 be 93 a7 06 bd
       -0.85551023 1.2416891 -0.25503775 -0.032874655
0000c0 e4 fe 85 3f 69 d3 35 3f b0 29 97 bf 2d 8e 82 3f
       1.0468411 0.7102571 -1.1809597 1.0199639
0000d0 33 06 7c 3f b1 79 86 3f fa ef 89 3f db bc 97 3f
       0.9844696 1.0505887 1.077636 1.1854509
0000e0 b2 88 d2 be 48 db 9f 3f 04 7c b9 bf cf 0b 89 bf
       -0.41119915 1.2488794 -1.4490972 -1.0706729
0000f0 ef 6e 6b 3f 8d cf 86 3f aa 32 74 3f 46 e6 7b 3f
       0.91966146 1.053209 0.9538981 0.98398244
000100 12 d6 73 3f 0e a4 65 3f 96 01 81 3f 22 33 8d 3f
       0.9524852 0.8970345 1.0078609 1.103123
000110 de 7a 87 3f 08 2c 4e bf ff 49 9e 3f 38 c5 5e 3e
       1.0584371 -0.80535936 1.2366332 0.2175492
000120 97 cf 56 3f b3 47 7f be f2 5c 80 3f d6 10 64 3f
       0.83910507 -0.24929695 1.0028365 0.8908819
000130 9e 31 79 3f f6 eb 85 3f b0 dd a0 3f 55 41 2e 3f
       0.97341335 1.0462635 1.2567654 0.6806844
000140 0f 68 98 bf a5 4b 8e bf 07 73 bf be 90 50 63 bf
       -1.1906756 -1.1116835 -0.37392446 -0.88794804
000150 8c 93 e5 be 62 05 40 3f ac 75 b2 3f 8c 93 83 bf
       -0.44839132 0.75008214 1.3942161 -1.0279403
000160 20 65 69 be 4e 99 92 bf ef 9f fc be 42 d9 c9 3e
       -0.22792482 -1.1453035 -0.4934077 0.39423567
000170 42 de 6c 3e ae 0d 33 3e 15 b0 a2 3e 07 d9 72 3d
       0.2313166 0.17485687 0.31774965 0.059289005
000180 a3 47 4c 3f 62 91 4f 3f be 5d 83 bf 78 2c b3 be
       0.7979681 0.8108121 -1.0262983 -0.34994864
000190 5c 89 4f bd 0f 86 e0 3e 76 6b 89 3e 4a 84 b6 3e
       -0.050668105 0.4385228 0.268398 0.35647804
0001a0 de 10 f7 3e 5d 91 00 c0 73 d1 28 bf 95 0e 0d 3f
       0.48255056 -2.0088723 -0.65944594 0.55100375
0001b0 eb 8a 97 3e a7 93 45 3f 67 63 08 3f a2 0e 81 bf
       0.29598173 0.77178425 0.53276676 -1.008259
0001c0 7d 4d 3f bf ca a5 6f 3f de 91 ea 3e 38 82 4f 3e
       -0.7472761 0.9361235 0.45814413 0.20264518
0001d0 29 83 c2 3d 31 fc 61 3f 36 ee 5c 3f 6e 4a 05 bf
       0.09497673 0.8827544 0.8630098 -0.52066696
0001e0 fe 33 da bf aa 19 74 bf c7 12 8c bf e9 cd 64 bf
       -1.7047117 -0.9535166 -1.094323 -0.89376694
0001f0 ea f6 7a bf 7d be 64 3f 70 55 26 bf e6 59 4f 3e
       -0.9803301 0.8935316 -0.6497412 0.20249137
000200 6d 1d 3a bf 59 b3 db be ca 16 87 bf 3d bf a4 3f
       -0.7270115 -0.4291027 -1.055383 1.2870861
000210 da b2 ad 3f 0c 45 8b 3f 57 91 88 3f 2f ac 84 3f
       1.3570206 1.0880446 1.0669354 1.0365046
000220 2a 6e d9 3e 65 d9 82 3f 52 71 33 bf 19 98 a8 bf
       0.4246686 1.0222594 -0.7009479 -1.3171417
000230 11 63 bf 3f 2d 69 9c 3f a4 ba 97 3f 92 7c 9d 3f
       1.4952108 1.2219597 1.1853833 1.2303641
000240 03 cb 6f 3f 66 3d 04 40 1d ec cb 3f 8c c9 78 3f
       0.93669146 2.0662475 1.5931431 0.97182536
000250 ed e9 8a 3f de c2 af 3e 17 6d 8b 3f 97 a3 29 bf
       1.0852638 0.3432836 1.0892667 -0.66265243
000260 45 fd b9 be ba 6a 29 3f 4f 0e 7e 3f 4e 73 82 3f
       -0.36326042 0.66178477 0.99240583 1.0191438
000270 c5 68 aa 3f 50 ad 6d 3f 61 b6 89 3f c2 2c 03 bf
       1.3313223 0.9284258 1.0758783 -0.5124017
000280 b6 1f 9b bc c0 27 8c 3a 7b f4 3d bd 7c eb af bd
       -0.01893602 0.0010692999 -0.046375733 -0.08589837
000290 37 31 54 be b0 7c 2e bc c1 7f 17 3d e8 d6 59 be
       -0.20721899 -0.010649845 0.03698707 -0.21273386
0002a0 26 9b 85 3d 6a aa a0 3d 82 c9 a4 bd f1 d9 5d 3d
       0.06523733 0.07845004 -0.08046247 0.054162923
0002b0 20 26 0c 3e ff 2a 25 3d f4 64 1c 3e 71 ae dc 3d
       0.13686419 0.040324207 0.15272886 0.107754596
0002c0 fa 20 2e 3c f4 e5 20 3d 50 91 44 3c ec 92 09 3d
       0.010627979 0.0392818 0.011997536 0.03358738
0002d0 66 45 3f 3d 17 10 11 bc b6 84 28 3e cd a1 fd 3d
       0.046697043 -0.008853934 0.16456875 0.12384377
0002e0 2a 99 9d 3d d1 bb 00 3d 80 b9 fe bd cc 9e bf 3b
       0.07695229 0.031429116 -0.12437725 0.0058477875
0002f0 b1 de 58 3d 54 b6 06 3d 52 61 4c 3d 47 65 e6 3c
       0.05294675 0.032888725 0.0498975 0.028124465
000300 1d a6 ba bb d2 d7 24 bc 55 d7 09 3e 4b 4f bc 3c
       -0.005696072 -0.010061221 0.13461049 0.022987029
000310 95 a2 43 3c 8e be be 3d 46 35 1c 3e 47 9f aa 3d
       0.011940618 0.09313689 0.15254697 0.08331161
000320 0e c0 2a 3e dc 93 d2 bd 72 33 5b bd 72 30 bb be
       0.16674826 -0.10282108 -0.05351586 -0.36560398
000330 27 bd 2c bd 9b ab ba 3e cd a6 c2 3d 0d bc 1d 3f
       -0.042172577 0.3645905 0.09504471 0.6161507
000340 33 a5 da be f6 fd bd bd be 72 ec be 59 f8 83 3e
       -0.42704162 -0.09276955 -0.4618129 0.25775412
000350 c2 16 8f be 4b e5 e9 3e 42 6b 55 3f 67 c0 3a 3f
       -0.2794705 0.4568275 0.8336679 0.7294983
000360 7a 61 84 3e d9 a5 09 3f 32 3c fb 3c 5d 8a c6 be
       0.2585562 0.5376869 0.030668352 -0.38777438
000370 f8 01 93 be 8d b9 43 3e 8f 84 48 be ec 7d 14 3f
       -0.2871244 0.19113751 -0.19581817 0.5800464
000380 33 8a c1 3e 0f a8 f6 be f1 e8 d5 bd 4e 3d 4a 3f
       0.3780075 -0.48175094 -0.10444821 0.78999794
000390 a8 da cb 3e ed ed 5c 3f b0 72 ca 3e ba 12 97 be
       0.3981526 0.86300546 0.39540625 -0.29506475
0003a0 93 98 3d bb 40 83 60 3e 35 1f 3e 3e 6d 85 53 bd
       -0.0028930053 0.21925068 0.18566592 -0.051640917
0003b0 a2 70 f7 3e 68 12 11 3f 1f eb 1c 3f 48 f8 89 bf
       0.4832812 0.5666871 0.61296266 -1.0778894
0003c0 70 0f d4 3d c6 3c 6b 3d 11 89 30 3e d0 6f 7d 3e
       0.10354507 0.057431005 0.17239787 0.24749684
0003d0 c8 e9 1f 3e 21 52 10 bf 16 77 c6 bd 25 39 bf be
       0.15616524 -0.5637532 -0.096906826 -0.37348285
0003e0 3a 59 3c bd 7f 34 16 3d 1d 18 d1 3e 75 90 00 be
       -0.04598353 0.036671158 0.4083871 -0.12555106
0003f0 df a7 41 bd e6 51 d1 be 29 12 18 bf 74 a6 c8 be
       -0.047279235 -0.40882796 -0.5940271 -0.39189494

lstm.weight_hh_l0 f4 [128, 32]
000000 2e 1e a0 bc c6 9c 61 3e 5c 99 76 3e 75 db 53 3b
       -0.01954564 0.2203246 0.2408194 0.0032326852
000010 bc 43 bc bc a2 93 87 3d 94 6e ab bd f2 8c 99 bd
       -0.022981517 0.066199556 -0.083707005 -0.07497586
000020 ba 24 85 be c9 d0 12 3d 6a d6 ae 3d 81 99 cf 3b
       -0.26004583 0.035843644 0.0853699 0.0063354378
000030 da ca 12 bc e5 e1 e6 bc 20 49 ba bd ed 49 8d 3e
       -0.008959496 -0.028183887 -0.09095979 0.27595463
000040 82 b9 3a be fd d9 90 3c 4e f1 b2 be 01 56 69 3d
       -0.18234828 0.01768207 -0.34949726 0.056966785
000050 19 a3 a0 be 95 b8 7e 3d 27 5a 82 bd 05 70 00 3d
       -0.31374434 0.06218775 -0.063648514 0.03135683
000060 7d f6 c8 bc e6 a0 4f 3d b0 39 f8 bd 47 12 1a bd
       -0.024531597 0.050690554 -0.12120378 -0.037615087
000070 f4 cc c3 bb 4a dc af bd bd 3b 0a 3b d5 f9 9b bd
       -0.00597536 -0.08586939 0.0021092736 -0.07616011
000080 38 cc 71 3c 6a 50 6a 3f 27 5f 64 bf e4 69 75 bf
       0.014758162 0.9152895 -0.8920769 -0.958647
000090 63 9c 17 3d 55 a3 42 be 23 98 b8 bd 90 70 70 bf
       0.037014376 -0.19007619 -0.09013393 -0.93921757
0000a0 67 06 80 bf 10 00 81 3f f1 fa 09 40 80 72 1b be
       -1.0001954 1.0078144 2.1559412 -0.15180397
0000b0 91 94 84 bf 35 00 bb bc be 80 71 3f c9 14 74 bf
       -1.0357839 -0.022827247 0.9433707 -0.95344216
0000c0 3f e0 99 bf 7b 96 16 3f 92 4f 7e 3f f6 71 6d bf
       -1.202156 0.58823365 0.99340165 -0.92752016
0000d0 27 e2 63 be dc 1a 72 3f e8 22 2c be 9f ea ce 3e
       -0.22254239 0.94572234 -0.1681019 0.40413377
0000e0 57 0a 40 bf d3 3f 73 3f e0 69 26 c0 1e c3 71 bf
       -0.7501578 0.95019263 -2.600212 -0.9443835
0000f0 48 73 8a 3f 21 cb 41 3c f3 7d 28 bf e1 73 9e 3d
       1.0816431 0.011828215 -0.65817183 0.07736946
000100 38 43 92 be c7 48 1e 3f 26 00 18 3f 71 24 b1 3d
       -0.2856691 0.618298 0.59375226 0.08649529
000110 11 c4 19 be 76 9e c5 3d 3a 88 e5 3d f7 7f 1a bf
       -0.150162 0.09649365 0.11207624 -0.6035151
000120 e6 ff 99 be 29 f6 9b 3f b6 61 8f 3e 40 9d b0 3d
       -0.30078048 1.2184497 0.28004235 0.08623743
000130 45 f8 38 bf 79 a9 f2 bc e8 ae cb 3d 01 ad 62 3f
       -0.7225383 -0.029621826 0.0994547 0.88545233
000140 4f 6c 68 be fc 53 dd bd 0d ce 0b 3e c9 f7 02 bd
       -0.22697566 -0.108070344 0.13652821 -0.031974588
000150 cc 8b 7a bf e9 36 79 bf 07 40 91 bd ec ad 84 bd
       -0.97869563 -0.9734941 -0.0709229 -0.064784855
000160 97 3b 45 bf d5 4f cc 3d f6 ad 1c 3f c4 d2 3e bf
       -0.7704405 0.09976164 0.61202943 -0.7454035
000170 50 27 21 bf 14 b3 7f bc e9 c0 2b 3f 36 65 2f be
       -0.6295061 -0.01560666 0.6709123 -0.17128453
000180 5b 4f 59 3e 11 f3 61 3f 12 91 ad bf 78 88 23 3f
       0.21221678 0.88261515 -1.3559897 0.6388011
000190 b2 59 b2 3e ab ea ad 3c 15 bf 90 bd 32 a3 4c bf
       0.34834057 0.021230062 -0.07067696 -0.79936516
0001a0 b0 d1 94 bf 33 a9 95 3f e8 0a 00 bd 2a 17 93 3c
       -1.1626492 1.169226 -0.0312604 0.017955381
0001b0 17 f3 af 3e b8 15 8e 3c 6e 98 99 3f c3 41 fe bb
       0.3436515 0.01734434 1.1999643 -0.0077593043
0001c0 fd 9f eb 3c ae 69 06 3f 83 09 94 3f c1 32 90 bf
       0.028762812 0.52505004 1.1565403 -1.1265489
0001d0 fe f8 2f 3d a5 41 4b 3d ee b5 73 bf af e5 22 bd
       0.042962067 0.04962315 -0.9519948 -0.039769825
0001e0 25 92 ae bc 43 cb 91 3f 71 b1 b2 bc f9 fd 82 bf
       -0.021309922 1.1390156 -0.021813126 -1.0233756
0001f0 f4 ff c3 bc c5 c1 6a bd 58 eb 53 be b2 a6 8f bd
       -0.023925759 -0.0573137 -0.20695245 -0.070142165
000200 77 ce a7 3d ca 49 96 bc 20 c9 1c 3d 7a 67 b8 3d
       0.08193677 -0.018345732 0.038277745 0.090041116
000210 78 ba c5 bc 22 54 74 bd 1b 48 76 3d ef ae 99 3d
       -0.024136767 -0.059650548 0.06012736 0.07504069
000220 6a a0 4f bc 35 57 a9 3d 25 c7 de 3d 74 16 ca bc
       -0.012672523 0.082685865 0.108778276 -0.02466891
000230 02 af 57 3d 8f d4 bb bc 42 e9 03 bd 4d f8 b9 3b
       0.052657135 -0.022928504 -0.032204874 0.0056753517
000240 3f ad 9f bc 92 b7 24 bd e2 ec ff 3d 3b f5 0c be
       -0.01949179 -0.04021413 0.12496354 -0.13765423
000250 b1 5b 83 bc b1 77 69 bc 43 24 90 3d bd 38 6c 3d
       -0.016034933 -0.014249728 0.070381664 0.057671297
000260 cc 35 c9 3b 90 f6 63 3d 45 03 f8 bb d3 35 a5 3c
       0.0061404463 0.055655062 -0.007568749 0.020167267
000270 2c 2b ce 3c 67 32 3c 3c 12 f6 2e bd 54 43 a5 3d
       0.02516707 0.011486626 -0.04271514 0.080694824
000280 13 7c 00 3e 7b 0b df 3e 13 47 97 bd 35 91 42 3c
       0.1254733 0.43563446 -0.07386603 0.01187544
000290 68 23 2e 3d d0 ac 28 3d 0c b6 18 bc 9d cd c8 bd
       0.042514235 0.04118043 -0.009320747 -0.098048426
0002a0 21 a1 ea bd 66 ef 04 3e 7a b8 df 3e c5 f3 a9 bb
       -0.11456514 0.12981948 0.43695432 -0.0051865303
0002b0 a1 02 e5 bc 4b be 8c bc 66 b8 c3 be ce 7f b2 3c
       -0.027955355 -0.017180583 -0.38226622 0.021789458
0002c0 13 da 0d 3d 95 b1 8d 3d d6 1e 9c bd b6 d3 4c be
       0.0346318 0.06918637 -0.07623069 -0.20002636
0002d0 4f 28 8e 3c e1 90 0d bd 86 78 81 bd f5 14 07 3d
       0.017353205 -0.034561995 -0.06321816 0.03297897
0002e0 f9 ca 09 3c d1 79 aa 3d 8f 93 c0 be 9b 26 1d be
       0.008410209 0.08324016 -0.37612578 -0.15346758
0002f0 97 e1 b6 bb 33 f0 5f 3c 4e 60 43 bc 23 c6 eb 3c
       -0.0055810916 0.013668108 -0.011924816 0.028781002
000300 f5 7a 56 be af 01 80 bf ca 0a 93 3d 74 25 77 3e
       -0.20945342 -1.0000514 0.07179792 0.24135381
000310 d4 2a 52 bd 21 c8 0c 3c 73 e6 27 3e 47 6c 77 3e
       -0.051310375 0.008592636 0.16396503 0.24162398
000320 34 ba 18 3e 40 50 dd be 1b 9e 81 3d 60 ad 73 bc
       0.14914781 -0.43225288 0.06328984 -0.014872879
000330 98 56 f8 bc c0 91 ef bc 5f a8 05 be c2 7c ce be
       -0.030314729 -0.029244304 -0.1305251 -0.40329558
000340 11 a7 91 bd 1d c3 03 3e 2a c1 6f be dd 77 72 3d
       -0.071119435 0.12867399 -0.2341353 0.05919634
000350 43 d3 ac 3d e9 de 11 3e 64 5b af 3e 81 65 96 bd
       0.084387325 0.1424519 0.34249413 -0.07343579
000360 e7 b6 9e 3c 5e 1b 6a be 58 fd 10 3e 02 bc 6c 3e
       0.019374324 -0.22862002 0.14159143 0.23118594
000370 f1 11 4a 3f 86 9e ef bc 36 9b be bd f8 fa a4 bd
       0.78933626 -0.029250395 -0.09306948 -0.08055681
000380 91 04 be 3d 70 6b 70 3f 14 45 cb be 00 04 44 bf
       0.09278215 0.93913937 -0.3970114 -0.76568604
000390 e4 c1 80 bc e0 00 43 bc f0 12 0a 3e ed 31 ce be
       -0.015717454 -0.011902064 0.13483787 -0.40272465
0003a0 ad 6f 0d bf d1 ce 65 3f e3 af c8 3c 66 49 ff 3e
       -0.5524853 0.897687 0.024497932 0.49860686
0003b0 fd 02 aa 3e e8 01 c3 bc a3 0a 3f 3f 79 f3 8f 3e
       0.33205405 -0.02380462 0.74625605 0.28115442
0003c0 54 6d 9e bd 3f 0e 8d be 0d dc 52 3f 4c 1d 6f bf
       -0.077356964 -0.2754993 0.8236702 -0.9340408
0003d0 01 b7 55 3e 01 a4 b1 bd 43 c5 14 bd 0d 9b 81 bd
       0.20870592 -0.086738594 -0.036320936 -0.06328402
0003e0 af 60 0f 3d c8 36 26 3f 36 3e 52 3d 3f 51 25 bf
       0.035004314 0.6492734 0.05132886 -0.64577097
0003f0 93 2f 82 bd eb bf 6e 3d fc 32 bc bd f3 66 a9 3d
       -0.0635673 0.058288496 -0.09189412 0.08271589

lstm.bias_ih_l0 f4 [128]
000000 38 70 51 3c dd 9c 82 3f 27 5a 1f 3d 69 88 8c 3f
       0.012783103 1.0204121 0.038904335 1.0979129
000010 47 e7 b0 3d 68 ed e2 3d a0 11 d7 bd 45 9a da 3e
       0.08637863 0.11080438 -0.105014086 0.42695823
000020 fb 1b 95 be 22 d2 d3 be 7a 3d 2d 3e b5 9c 1a 39
       -0.2912291 -0.41371256 0.16917983 0.00014744962
000030 87 07 93 bf b3 ad 3e be 51 8b 9d 3e b7 87 e4 be
       -1.1486672 -0.18620948 0.30770352 -0.44634792
000040 5f 2d b7 3e 20 ba 8f bf 85 6a 35 bc fd f2 87 3e
       0.35776803 -1.1228676 -0.0110727595 0.26552573
000050 80 c7 e6 bf fa 7b 90 3f fd 4f 35 3f 7c 8e 2c be
       -1.8029633 1.1287835 0.7082518 -0.16851228
000060 52 7a e2 3c d1 91 27 bf e5 36 bf 3f 74 ad 7e 3b
       0.027646217 -0.65456873 1.4938627 0.003886071
000070 5e 06 a2 3f 12 8d f5 bd 49 92 5b 3e 79 70 2a bd
       1.2658193 -0.11989798 0.21442522 -0.04161117
000080 d4 3e 05 bc b4 ac 7e 3f 70 89 a0 3e e9 cc 5a bf
       -0.008132655 0.99482274 0.31354856 -0.8546892
000090 11 b6 b8 3d 20 43 14 3e 77 ff a0 bd 14 16 81 bf
       0.090191014 0.14478731 -0.07861226 -1.0084863
0000a0 57 6f 4d 3f 09 a4 4e be 29 dd d0 3c 52 bb 17 bf
       0.80248016 -0.20179762 0.025496082 -0.59270203
0000b0 0a da 75 bf 77 11 89 bd 25 f7 f5 be 55 17 8c 3f
       -0.96035826 -0.06692784 -0.4804012 1.094462
0000c0 f5 4f 69 3e 7c b8 74 bf 7e 5c 1f 3f 7c 42 00 bf
       0.22784407 -0.95594 0.62250507 -0.5010145
0000d0 42 0f da 3f db ae 97 3f df 7f 0c 3e b1 50 9f 3d
       1.7035906 1.1850237 0.13720654 0.077790625
0000e0 6c 11 a2 3c 64 76 9e be 6e ef 18 be 3a 54 90 3d
       0.019783698 -0.309497 -0.14935085 0.07047315
0000f0 d8 61 63 3e ab 41 9f bd e7 93 b6 3e 9c 0f 0e bc
       0.22205293 -0.07776197 0.35659716 -0.008670714
000100 e8 73 e5 3d 78 1d 53 3f 49 97 a5 be af 38 c2 bd
       0.11203748 0.8246684 -0.32341984 -0.09483468
000110 bb 7a 25 bd ff 79 84 3f 55 36 f7 bd 93 96 83 be
       -0.040400248 1.034973 -0.1207091 -0.25700817
000120 50 c4 88 bf 22 3d 25 3e 33 5f 40 3e 18 27 d5 be
       -1.068491 0.16136602 0.18786316 -0.4163139
000130 b6 e0 79 3f 23 55 3f bd ea 0a 49 3d fd ae 8d 3d
       0.97608507 -0.046712052 0.049082674 0.06918142
000140 3c ba 02 3e c3 4e be bc d6 b3 66 be e6 01 23 3f
       0.12766355 -0.023230916 -0.2252954 0.6367477
000150 94 94 05 bf 8b 0d fc be 07 ab d9 bc d3 0b 9e be
       -0.5217984 -0.49229082 -0.02657081 -0.30868396
000160 58 a8 ef 3a 24 d8 25 3d e8 ef 7f 3b 78 51 04 3c
       0.0018284423 0.04048933 0.0039052907 0.008076064
000170 8d a2 6b 3f b6 a3 d9 bd ef e7 9f bd fb 59 aa bc
       0.9204491 -0.106269285 -0.0780791 -0.02079486
000180 be 90 80 bf 26 17 79 3f bb 17 a5 3d e1 3a 88 bf
       -1.0044172 0.97300947 0.08061167 -1.0642968
000190 71 d4 da 3c 07 ab 0e bf 5b f8 27 3d c8 7c fc 3e
       0.026712628 -0.55729717 0.041008335 0.4931395
0001a0 91 3a 4d 3e c0 46 90 3f 56 2d 12 be 25 8e 5f 3e
       0.20041873 1.1271591 -0.14275107 0.21831568
0001b0 de 8e 54 bb b4 d9 c0 bd 76 c3 6e 3e a0 00 a9 be
       -0.0032433788 -0.094165236 0.2331675 -0.3300829
0001c0 6b 1b db 3e 50 99 3d be 4f c3 81 3f 2d 81 53 be
       0.42794356 -0.18515515 1.0137728 -0.20654745
0001d0 78 e3 1d 3f c5 5d d3 be 61 6f fb be 6a 73 ac 3d
       0.61675215 -0.41282478 -0.49108413 0.08420451
0001e0 84 14 bc bf 94 f3 4e 3e ba 92 49 3f 1c 5c 05 3f
       -1.4693761 0.20210105 0.7873951 0.5209367
0001f0 35 c3 b8 bf 78 69 60 bd 43 8c 47 bf 74 97 2d be
       -1.4434572 -0.054788083 -0.779484 -0.16952306

lstm.bias_hh_l0 f4 [128]
000000 e2 ff fa 3a 92 be 82 3f b1 92 1f 3d 16 0b 8c 3f
       0.0019149745 1.0214407 0.038958255 1.0940883
000010 04 dd a7 3d 29 a2 ea 3d ee df d8 bd c0 f0 dc 3e
       0.08196452 0.11456711 -0.10589586 0.43152428
000020 29 95 97 be 1a 5b d7 be f6 b8 33 3e ec 23 2b bc
       -0.29605988 -0.42061692 0.17551026 -0.010445576
000030 02 3b 92 bf 76 cb 46 be 5a 1a a3 3e 43 7f e4 be
       -1.1424258 -0.19413552 0.31856042 -0.44628343
000040 4f bc b7 3e 56 da 8e bf d1 e7 0b bc de 81 82 3e
       0.35885856 -1.1160381 -0.008539156 0.25489706
000050 d1 01 e6 bf dd 4d 8f 3f 57 fc 33 3f ba fc 27 be
       -1.7969304 1.1195637 0.70306915 -0.16405001
000060 49 47 d9 3c 04 14 26 bf eb fe be 3f 94 5a 29 3c
       0.02652325 -0.6487429 1.4921545 0.010336537
000070 39 bd a0 3f 41 42 dc bd 35 d1 66 3e 16 0c 35 bd
       1.2557746 -0.107548244 0.22540744 -0.04420098
000080 a9 d0 97 bb 40 af 7d 3f 73 bb 9b 3e 99 be 59 bf
       -0.0046330285 0.99095535 0.3041645 -0.85056454
000090 57 c0 bc 3d 6d c6 0c 3e 1b 3c 9c bd 69 fb 80 bf
       0.092163734 0.13747568 -0.07628652 -1.0076724
0000a0 5f cb 4b 3f 0e 99 44 be e3 8a ce 3c 12 cd 18 bf
       0.79607195 -0.1919901 0.02521271 -0.5968791
0000b0 b4 17 77 bf 41 82 98 bd 59 e7 f8 be 23 b6 8b 3f
       -0.96520543 -0.07446719 -0.48614004 1.0914959
0000c0 7f 0d 74 3e 84 ab 75 bf a5 58 1f 3f 21 79 02 bf
       0.23833273 -0.9596484 0.62244636 -0.5096608
0000d0 29 ee d9 3f b0 74 98 3f e9 1c 0a 3e bf d2 a8 3d
       1.7025806 1.191061 0.13487591 0.082433216
0000e0 4a d9 ad 3c e1 7d 9d be 33 1f 1d be cb 23 9d 3d
       0.021221776 -0.307601 -0.15343933 0.076728426
0000f0 d3 4b 62 3e 52 b5 a4 bd 7f 08 b2 3e 87 3d 47 bc
       0.22099237 -0.080423966 0.34772107 -0.012160665
000100 69 0f f4 3d 80 62 52 3f 41 c8 a5 be 58 94 c7 bd
       0.11917002 0.8218155 -0.32379344 -0.09745091
000110 bc 59 2f bd 59 62 83 3f 42 43 f8 bd ba 84 81 be
       -0.042810187 1.0264388 -0.121222034 -0.25296575
000120 ac 82 8a bf 83 be 24 3e a0 5b 41 3e 62 cd d8 be
       -1.0821128 0.160883 0.18882608 -0.42344195
000130 86 de 7a 3f 95 54 37 bd 61 e4 34 3d bf 23 8c 3d
       0.97995794 -0.044758398 0.04416311 0.068427555
000140 2f 91 05 3e fc f5 0c bd 26 0a 6a be 22 c8 21 3f
       0.13043664 -0.034414276 -0.22855434 0.63196003
000150 36 05 03 bf 95 a6 fe be 46 da f5 bc 8b 66 9c be
       -0.51179826 -0.49736467 -0.030011307 -0.30546984
000160 82 2f 98 bb f9 84 21 3d 1c f8 56 3c 92 2d 4c 3c
       -0.0046443352 0.039433453 0.013120677 0.012462037
000170 6c a2 6b 3f 41 ae c2 bd c9 0c a5 bd 1a fe 91 bc
       0.9204471 -0.095058925 -0.08059079 -0.01782136
000180 fb e1 80 bf cb eb 78 3f 98 00 b0 3d d0 83 89 bf
       -1.0068964 0.9723479 0.08593863 -1.0743351
000190 78 b9 fe 3c f6 ce 0e bf a6 85 34 3d 9b 88 fd 3e
       0.031094298 -0.5578455 0.04407277 0.49518284
0001a0 8e ed 4a 3e f0 b1 91 3f 5a 6d 19 be 47 f7 67 3e
       0.19817182 1.1382427 -0.1498312 0.22652923
0001b0 db b1 06 bc dc 89 ba bd 82 7f 6c 3e 8b ce a5 be
       -0.008221115 -0.09108326 0.23095515 -0.32384142
0001c0 a7 f8 d6 3e 04 c6 44 be 41 bf 80 3f ee f8 5d be
       0.41986582 -0.19216162 1.0058366 -0.2167699
0001d0 b1 64 1e 3f 4e 5e d6 be 3e b8 00 bf 94 1f b5 3d
       0.6187239 -0.41868824 -0.5028113 0.08843914
0001e0 44 5c bb bf f8 ee 52 3e 20 52 47 3f 1e 85 05 3f
       -1.4637532 0.20598972 0.7785969 0.52156246
0001f0 32 cd b8 bf 92 8f 81 bd f3 27 46 bf f8 46 24 be
       -1.4437621 -0.06326212 -0.7740471 -0.16042697

classifier.weight f4 [1, 32]
000000 1b eb 4e 3e a4 3e 15 bf a2 fe ac bd 88 0f 43 bf
       0.20206873 -0.58298707 -0.08447005 -0.76195574
000010 b2 9a 51 3d c7 f8 9b be 8d 36 77 be 6c c4 3d 3f
       0.05117292 -0.3046324 -0.24141903 0.7412784
000020 51 5b c0 bf 81 5e 81 3e fd 80 bf 3f c8 26 b5 be
       -1.5027868 0.25267413 1.4961239 -0.3538115
000030 a8 ca d4 be 9d 10 da bd 7e 98 4e bf 4f ea a8 3e
       -0.41560864 -0.106477 -0.80701435 0.32991263
000040 f1 63 46 c0 df c7 1e bf e2 45 ed be 6e 17 2f bf
       -3.09985 -0.6202373 -0.4634238 -0.68395126
000050 e8 ee 2e 41 76 78 a0 3f 83 9b 7d be 62 a2 d3 be
       10.933327 1.2536762 -0.24766354 -0.41334826
000060 36 3f 4c bf 87 8a cb 3e 5e 11 df bf 9a b7 5c bf
       -0.7978395 0.39754125 -1.7427175 -0.86217654
000070 b2 c7 69 3f 74 cc 4a bd c5 24 08 bf 80 b8 b1 bd
       0.91320336 -0.049511388 -0.53181106 -0.08677769

exp_avg f4 [40]
000000 2b 7d 02 37 c1 dc eb 36 47 1d b9 36 5b d6 19 b7
       7.777747e-06 7.029245e-06 5.516838e-06 -9.169419e-06
000010 46 0b be b5 d8 d8 ea 35 e2 d0 a5 35 b8 cf 7e 36
       -1.4159384e-06 1.7497468e-06 1.2354251e-06 3.7969858e-06
000020 98 3a 55 36 2b 1a f6 b4 a7 74 06 b4 a8 6e 54 35
       3.177358e-06 -4.584011e-07 -1.252216e-07 7.913718e-07
000030 70 82 51 b6 3b ac c8 b5 b1 2c 87 b5 cd 9f 0b 36
       -3.1219352e-06 -1.4951287e-06 -1.0071291e-06 2.080563e-06
000040 da f5 bf b5 87 3e 3e 36 8d 4e a8 34 5e 71 5f 35
       -1.4302161e-06 2.8348602e-06 3.1349592e-07 8.3238945e-07
000050 e2 94 92 35 9f 73 cd 34 4a 8f 99 33 6e 0a e8 b4
       1.0921178e-06 3.826835e-07 7.150682e-08 -4.3220956e-07
000060 39 34 27 b4 20 af 13 b6 50 b8 c3 35 4f ff e0 34
       -1.5572085e-07 -2.2006643e-06 1.4582274e-06 4.1909013e-07
000070 cf a2 20 35 33 c8 fa 35 a0 ef 81 b3 45 73 5e b5
       5.984156e-07 1.8684717e-06 -6.050618e-08 -8.2869184e-07
000080 d7 48 02 b6 fa c8 9b 35 55 e1 3c 35 12 3a 1a b4
       -1.9413908e-06 1.1606892e-06 7.036336e-07 -1.4363494e-07
000090 98 b7 20 34 ba 17 42 35 e6 44 98 34 37 6c 39 32
       1.4967952e-07 7.230516e-07 2.8362336e-07 1.07930225e-08

exp_avg_sq f4 [40]
000000 4d 16 a9 37 01 72 a8 37 bb 7e 96 36 f6 9e 51 38
       2.0156755e-05 2.0080248e-05 4.4851017e-06 4.9977527e-05
000010 39 6a 62 36 62 36 8d 36 52 aa e1 36 b6 e0 a7 37
       3.3738454e-06 4.2084584e-06 6.7253504e-06 2.001259e-05
000020 06 a2 37 38 41 10 ff 36 d2 eb 59 36 6c a1 c0 35
       4.3781496e-05 7.6014844e-06 3.2472785e-06 1.4352095e-06
000030 98 2a 2d 36 86 e4 c7 36 9b 15 32 35 c3 68 7a 35
       2.5803802e-06 5.957266e-06 6.634161e-07 9.3284706e-07
000040 b9 e4 30 35 0d 2b d0 35 94 7a 3d 36 e9 bc a6 34
       6.5897945e-07 1.5509737e-06 2.8234545e-06 3.105736e-07
000050 57 53 4b 35 37 7f f2 34 fa f9 18 35 33 84 16 34
       7.574467e-07 4.5168574e-07 5.6988176e-07 1.4017932e-07
000060 75 18 1e 34 32 25 fa 34 ce 11 a1 34 db e5 b8 34
       1.4723794e-07 4.6593192e-07 3.0001542e-07 3.4439913e-07
000070 a5 ea bb 35 33 57 cb 35 6a 9f d8 34 f0 f3 f9 35
       1.4000876e-06 1.5150057e-06 4.0349124e-07 1.8622941e-06
000080 cd 39 90 35 ff f2 bf 35 31 79 6a 34 13 63 09 34
       1.0745658e-06 1.430133e-06 2.1837037e-07 1.2795162e-07
000090 d0 b7 46 35 65 52 38 35 09 95 03 36 f7 b9 4b 35
       7.402823e-07 6.866524e-07 1.960727e-06 7.589401e-07

exp_avg f4 [40]
000000 ea ef 19 37 5a ec 68 38 c3 20 54 b8 a3 bd cc b8
       9.17537e-06 5.553323e-05 -5.057525e-05 -9.7628006e-05
000010 76 61 18 b9 8a fd c8 b7 46 fa a9 38 33 d0 76 b8
       -0.00014532157 -2.3959921e-05 8.105165e-05 -5.884487e-05
000020 16 d3 c4 38 f1 80 f5 37 6a 20 1d b6 02 e5 84 34
       9.385326e-05 2.9266319e-05 -2.341369e-06 2.475354e-07
000030 5a 40 92 37 8a ca 03 b8 fa 90 3b b8 0f c4 9f 37
       1.7434522e-05 -3.1421463e-05 -4.4719294e-05 1.9045574e-05
000040 c3 21 05 b8 2c 24 cb b6 38 8f 01 38 28 32 ca b4
       -3.1741114e-05 -6.0540824e-06 3.088938e-05 -3.7661925e-07
000050 2f 00 c5 37 78 2c b1 b7 52 85 82 37 f0 c1 ac b6
       2.3484316e-05 -2.1120752e-05 1.555929e-05 -5.1485767e-06
000060 81 46 dc 34 f8 00 83 37 45 21 3a 38 cd 4c 7c b7
       4.1029492e-07 1.5616868e-05 4.437684e-05 -1.5038252e-05
000070 71 c1 c2 b6 d9 b5 08 b8 29 64 5a b7 8d 08 3b 38
       -5.80417e-06 -3.2594286e-05 -1.3017133e-05 4.4592238e-05
000080 78 29 f5 37 5e 60 2c b8 7d 43 c6 b7 7d d8 3c b8
       2.9225586e-05 -4.1097745e-05 -2.3634866e-05 -4.5024313e-05
000090 c4 e6 54 b8 a8 29 fd b6 30 1a 56 b7 2c 20 cf 37
       -5.0759656e-05 -7.544837e-06 -1.2761491e-05 2.4691304e-05

exp_avg_sq f4 [40]
000000 5b 90 e6 36 8c d1 60 36 97 5b 28 36 46 ee 1b 37
       6.8713393e-06 3.3500573e-06 2.5087263e-06 9.294197e-06
000010 7d 9c a9 36 80 95 ce 36 f1 f2 03 37 8e 98 82 37
       5.05481e-06 6.1566825e-06 7.864773e-06 1.5568246e-05
000020 f3 44 66 37 37 d0 07 37 d6 03 a9 36 20 f6 ad 36
       1.3725122e-05 8.095106e-06 5.037039e-06 5.1844545e-06
000030 cb 49 1d 37 8d 70 9e 36 48 9d 5c 36 f9 1d bf 36
       9.3751105e-06 4.7218696e-06 3.2874104e-06 5.695733e-06
000040 f5 e8 5c 36 89 8c c7 36 d1 66 c3 36 93 47 8e 36
       3.2918153e-06 5.9470226e-06 5.8234223e-06 4.240262e-06
000050 59 ad eb 35 a5 c0 83 36 89 82 02 36 b8 5b 22 36
       1.7559315e-06 3.926531e-06 1.944749e-06 2.4193268e-06
000060 b6 62 30 36 8c 43 43 36 95 4d 14 36 a8 05 9a 36
       2.62835e-06 2.9096582e-06 2.2098877e-06 4.590216e-06
000070 d0 1e 5e 36 6a c6 69 37 5f 7b b5 36 0b 6b 50 37
       3.3098513e-06 1.3934079e-05 5.4085826e-06 1.2422689e-05
000080 96 10 21 37 de 8b 81 37 fa fb 34 36 68 07 d3 35
       9.6002095e-06 1.5443129e-05 2.696876e-06 1.572288e-06
000090 6d d0 80 36 19 6e 8c 36 50 a4 df 36 06 ac 5c 37
       3.838961e-06 4.185142e-06 6.6650464e-06 1.3153074e-05

exp_avg f4 [128, 40]
000000 40 f3 db a7 b0 cf 09 28 be 7c 8b 26 d6 c9 5d 27
       -6.1048443e-15 7.650063e-15 9.678874e-16 3.0779327e-15
000010 cc 0f 1d a7 0d 04 3d 26 80 92 88 a7 48 d1 76 26
       -2.179669e-15 6.5578037e-16 -3.790642e-15 8.5632024e-16
000020 77 09 f2 26 c8 88 8e 24 42 14 3f a6 1a c3 84 a4
       1.6794689e-15 6.18144e-17 -6.629389e-16 -5.757639e-17
000030 3d 83 c9 25 6f 60 27 a6 50 09 13 26 17 83 db a4
       3.4956872e-16 -5.8070456e-16 5.101349e-16 -9.5198185e-17
000040 b8 b3 71 26 4a 8d 42 a6 3f 0a eb 24 7f b9 9c a5
       8.3857236e-16 -6.7498753e-16 1.0193236e-16 -2.7187383e-16
000050 9d 80 9d 26 fa 2f 8f 25 87 43 ca 25 42 3e 1a 26
       1.0928924e-15 2.4839056e-16 3.5087173e-16 5.351386e-16
000060 7b 39 80 25 c6 d2 5d 26 e7 2c 05 26 97 f9 a8 26
       2.224341e-16 7.696043e-16 4.62045e-16 1.1724993e-15
000070 39 d9 4d 26 4e 7d 93 25 27 dd 5c 26 7d 2e 25 a6
       7.1418054e-16 2.5585345e-16 7.662755e-16 -5.730888e-16
000080 ff 77 ca a4 21 76 47 25 ad 47 59 26 fc 39 19 25
       -8.780682e-17 1.7300522e-16 7.538414e-16 1.329028e-16
000090 74 7c 29 a6 2b 5e 24 25 1b 7f 0b 26 52 49 54 a3
       -5.880232e-16 1.4256638e-16 4.8397573e-16 -1.1508069e-17
0000a0 0b 41 b0 af a3 0f f4 30 8f bc 2c b0 e8 0f 35 2e
       -3.206043e-10 1.7757781e-09 -6.2841193e-10 4.1168763e-11
0000b0 23 9c bc b0 e3 a8 19 30 8e 22 8c af 98 4b 51 2f
       -1.3723177e-09 5.590108e-10 -2.5490404e-10 1.9035296e-10
0000c0 c1 3a ed 2f bf 9b a3 2e e5 44 0f af 89 d8 2a af
       4.3151796e-10 7.440048e-11 -1.303025e-10 -1.5538339e-10
0000d0 6a 6a b0 ae df ab 9d 2f ee d0 16 2f f5 27 79 af
       -8.022456e-11 2.8680255e-10 1.3716647e-10 -2.2660614e-10
0000e0 79 64 92 30 8b 3e 3b af b5 78 25 2d 0a 0f 33 2d
       1.0651454e-09 -1.702977e-10 9.4059665e-12 1.0178311e-11
0000f0 69 6a d2 af ed b1 fc ae 99 0a c5 2e df 0a fc 2d
       -3.8274386e-10 -1.1491239e-10 8.960405e-11 2.865391e-11
000100 b8 ac 23 2f bc 50 31 b0 f9 97 74 af 7d 99 c6 2f
       1.4886126e-10 -6.4506955e-10 -2.2245662e-10 3.612505e-10
000110 6c 30 7b 2f 64 5b 6a 2d f6 42 59 2f ce 70 18 af
       2.284552e-10 1.3321653e-11 1.9759824e-10 -1.3864396e-10
000120 84 78 29 ae 4e 8a cc 2f 89 15 11 2f 62 63 12 2f
       -3.853319e-11 3.7205655e-10 1.3195324e-10 1.331393e-10
000130 84 86 16 2e 7e 26 b9 2e dd db a6 2f df b5 57 ae
       3.4225525e-11 8.4196636e-11 3.0351446e-10 -4.9046874e-11
000140 2e bb 18 34 8c db 15 35 43 6e 8b b4 dc 1e c5 b3
       1.4224199e-07 5.582631e-07 -2.5970994e-07 -9.179141e-08
000150 8e bc 56 b4 11 e1 28 34 a6 88 94 b3 93 71 63 33
       -1.9998899e-07 1.5728098e-07 -6.916643e-08 5.295585e-08
000160 f1 72 1a 34 b6 06 a4 b2 0e c9 5d b3 43 4e 04 34
       1.4384183e-07 -1.9095165e-08 -5.163843e-08 1.232193e-07
000170 5a 02 79 b2 a1 37 4d 33 26 4d 08 34 75 e0 d0 33
       -1.4494242e-08 4.7780876e-08 1.2694053e-07 9.726583e-08
000180 7e 7c 41 b4 c2 c5 4f 34 99 b7 de b2 5d e8 ec 32
       -1.8019816e-07 1.9350321e-07 -2.5927692e-08 2.7579683e-08
000190 24 30 9e 32 7e 41 8d 33 41 b4 8a 33 25 4e 99 33
       1.8415513e-08 6.577737e-08 6.458914e-08 7.138832e-08
0001a0 99 5b cb b0 07 6e 8b 33 8b df 4b 31 1a 4b 61 33
       -1.4796228e-09 6.492706e-08 2.9667457e-09 5.24552e-08
0001b0 66 8c 53 33 0e 9a 93 32 93 68 8c 33 21 e5 4e b3
       4.9254957e-08 1.7183108e-08 6.53828e-08 -4.8171504e-08
0001c0 f9 ee b2 32 b1 9a 5e 33 23 47 87 33 2f ea ce 32
       2.08306e-08 5.1829094e-08 6.299367e-08 2.408805e-08
0001d0 5e 48 2b 33 63 64 5c 33 92 e3 bf 33 da 90 86 31
       3.9879858e-08 5.1314043e-08 8.9355254e-08 3.916381e-09
0001e0 b3 ab 60 a2 4a 17 47 a4 ad d1 46 24 c8 b2 9c 23
       -3.0448558e-18 -4.3170973e-17 4.3112008e-17 1.698927e-17
0001f0 69 a1 ce a2 43 58 ea a3 78 d2 18 24 c2 44 68 a3
       -5.600731e-18 -2.5407711e-17 3.313802e-17 -1.2591305e-17
000200 26 51 8f a4 fa 90 69 a2 74 54 3c 23 f3 3a c2 a3
       -6.2153835e-17 -3.1654138e-18 1.0209384e-17 -2.1058488e-17
000210 02 46 7a a2 13 c9 1e a3 2b 5f 69 a3 7e 4b 9b a3
       -3.391838e-18 -8.607776e-18 -1.2651108e-17 -1.6837106e-17
000220 56 79 1c 24 48 84 61 23 aa e5 38 22 38 74 31 22
       3.3929883e-17 1.2225286e-17 2.5058233e-18 2.4049499e-18
000230 1a f6 c5 a3 f8 87 3c a3 02 95 f6 a2 34 78 e5 a1
       -2.1463011e-17 -1.0220293e-17 -6.68362e-18 -1.5549461e-18
000240 b8 fa 21 a3 0c 15 0c 24 17 4a 86 23 f5 b1 4c 23
       -8.780919e-18 3.0375488e-17 1.4559687e-17 1.1096546e-17
000250 e7 9f c8 a1 9d b3 2c 22 fb 0a 13 a3 9e 46 35 23
       -1.3594853e-18 2.3405433e-18 -7.971211e-18 9.8269834e-18
000260 7c e5 ca a3 ce 98 54 24 6a 43 27 a4 e7 d9 8f a3
       -2.1998074e-17 4.6099603e-17 -3.6269454e-17 -1.5596376e-17
000270 27 1b 03 a3 2b 25 c8 20 be c2 e9 22 83 50 bf a2
       -7.107274e-18 3.3905914e-19 6.3360968e-18 -5.18559e-18
000280 d1 84 8c af 78 a8 e4 30 27 0c ba af a4 7b 87 b0
       -2.5560223e-10 1.6637065e-09 -3.3841838e-10 -9.857684e-10
000290 22 fc a5 2f 31 fb 29 b0 18 4a a5 af 0f d6 ec ae
       3.0192476e-10 -6.1838806e-10 -3.0065972e-10 -1.0770062e-10
0002a0 d2 c6 26 2f 60 73 c2 ad de b0 6c 2f 40 63 fe af
       1.5168247e-10 -2.2106483e-11 2.1526911e-10 -4.6272852e-10
0002b0 9e 63 97 ae 48 7b c8 ae cf 7d a7 b0 2f 1a 09 af
       -6.8843806e-11 -9.116846e-11 -1.2186606e-09 -1.246938e-10
0002c0 a9 da 0a 2f db 38 60 af 67 69 d5 2e f0 f4 78 2b
       1.262871e-10 -2.039288e-10 9.704842e-11 8.844722e-13
0002d0 d0 c0 80 2d 94 b3 b7 af 1c 29 44 af 46 27 89 af
       1.4637541e-11 -3.3415104e-10 -1.7840701e-10 -2.494806e-10
0002e0 5b 61 1b ae 46 b8 ca af 91 0b b4 af db 1e b6 af
       -3.532939e-11 -3.687452e-10 -3.2750028e-10 -3.312753e-10
0002f0 84 ad 9b af cf a2 b4 ae 32 91 82 af 4c 0b 4b 2f
       -2.8317626e-10 -8.214373e-11 -2.375003e-10 1.8466756e-10
000300 e7 59 63 ae 50 82 9a ae d6 08 db af e4 8c 6b af
       -5.1693674e-11 -7.0262574e-11 -3.9842146e-10 -2.142318e-10
000310 68 a1 a8 af ad 83 74 af 42 4e b0 af 60 ba bf ac
       -3.0673708e-10 -2.2238451e-10 -3.206982e-10 -5.4492383e-12
000320 e7 b9 a0 27 2b ac e2 a9 9b 12 b1 28 73 8d 56 27
       4.4610477e-15 -1.00662825e-13 1.9659016e-14 2.9775146e-15
000330 92 76 0d 29 40 d1 0a a9 23 78 15 29 2f 61 61 a7
       3.1411133e-14 -3.082365e-14 3.3188848e-14 -3.1277706e-15
000340 45 e2 8a a9 b8 96 66 27 93 72 04 28 7b 08 0b a8
       -6.1676826e-14 3.2000617e-15 7.352316e-15 -7.717889e-15
000350 4f 33 b0 a7 d1 6e b1 a7 a3 e0 55 27 2a 9e 3f a8
       -4.890544e-15 -4.9247516e-15 2.9681464e-15 -1.0636926e-14
000360 50 10 7a 29 9f 5b a7 a8 14 ab d9 27 7d 84 35 a7
       5.55253e-14 -1.8580459e-14 6.0415082e-15 -2.5190618e-15
000370 e3 22 d0 a6 f4 3c 15 a8 f7 6e 21 28 20 d1 2c a8
       -1.4442355e-15 -8.284379e-15 8.961357e-15 -9.593265e-15
000380 ee 75 76 27 3e b3 32 a8 fe 03 6f 27 5b 90 25 a7
       3.4203288e-15 -9.919852e-15 3.3170077e-15 -2.2976605e-15
000390 9b 3d 10 a8 b7 93 62 a7 62 f4 55 a8 8b bb 04 28
       -8.006964e-15 -3.1443877e-15 -1.1876867e-14 7.368139e-15
0003a0 e9 81 38 a7 ec 36 14 a8 d0 cc ce a7 b1 e9 17 26
       -2.5605554e-15 -8.22756e-15 -5.7398544e-15 5.270536e-16
0003b0 14 c2 d7 27 f2 46 b6 a7 76 bc 11 27 3b 40 58 a7
       5.9884907e-15 -5.0592067e-15 2.0224957e-15 -3.0010841e-15
0003c0 11 bc 63 b2 26 9d b1 32 90 42 0d 32 c3 d8 43 b1
       -1.32559e-08 2.0676975e-08 8.222415e-09 -2.849945e-09
0003d0 63 87 3e 31 f1 c6 85 b2 48 f6 89 2e c8 a3 70 b1
       2.7725597e-09 -1.5573706e-08 6.273787e-11 -3.5017695e-09
0003e0 3e 04 01 31 22 bd 21 b0 8c 22 bd 31 42 ca 2d b2
       1.8774382e-09 -5.884023e-10 5.5045515e-09 -1.0115913e-08
0003f0 49 1c 5f b0 12 b9 6f b1 e7 4d c8 b2 70 fb bd b1
       -8.1167123e-10 -3.4884278e-09 -2.331849e-08 -5.529209e-09

exp_avg_sq f4 [128, 40]
000000 61 80 c1 26 c2 32 0d 28 d8 6e 27 27 57 ca 4a 27
       1.3426862e-15 7.838079e-15 2.3235994e-15 2.814282e-15
000010 c6 aa 00 27 de b8 4b 27 d6 fe 10 28 c6 c0 08 28
       1.7856145e-15 2.8272126e-15 8.0488645e-15 7.591318e-15
000020 98 e8 6d 27 be 11 fc 26 f1 97 e0 27 11 ea b1 25
       3.3016446e-15 1.7490822e-15 6.2337225e-15 3.0863215e-16
000030 ce 6c a2 26 12 5c 12 27 8f a1 30 27 a6 12 7f 26
       1.12705e-15 2.0311482e-15 2.4512488e-15 8.849617e-16
000040 f6 bc ed 25 04 8d a0 27 0d 4a 3b 27 68 b8 00 26
       4.124099e-16 4.456181e-15 2.5991606e-15 4.465884e-16
000050 51 81 80 26 40 51 5d 26 46 20 8e 27 8d a1 9e 27
       8.916835e-16 7.678489e-16 3.944791e-15 4.4028963e-15
000060 b0 27 a4 26 f4 b0 59 27 4c 28 40 27 0b 16 cd 26
       1.1390543e-15 3.0210726e-15 2.6667198e-15 1.4230707e-15
000070 ea 6d c5 27 15 b6 29 27 25 fb 7f 27 f2 70 06 28
       5.4797653e-15 2.3552168e-15 3.5524505e-15 7.462985e-15
000080 b3 59 4b 25 4d f2 d8 26 0e 8f 3b 27 10 b9 42 27
       1.7637835e-16 1.5053687e-15 2.6029013e-15 2.702323e-15
000090 40 d9 b3 26 67 24 3a 25 4f 44 69 25 04 d2 32 26
       1.2479506e-15 1.6145262e-16 2.0232672e-16 6.204078e-16
0000a0 77 54 0e 32 f2 4d 73 36 3a a0 f4 33 61 8b 16 36
       8.284693e-09 3.6255192e-06 1.13912805e-07 2.243287e-06
0000b0 92 bf b5 31 6f 67 0b 35 09 29 9b 35 10 ca 28 33
       5.2895723e-09 5.193205e-07 1.1560343e-06 3.9299323e-08
0000c0 1e bc 64 35 30 0c 32 32 12 9e 01 33 69 50 e5 33
       8.5210365e-07 1.0363735e-08 3.0178917e-08 1.067827e-07
0000d0 59 af c4 2f a9 68 72 32 97 ea b8 34 c7 83 bf 32
       3.5776784e-10 1.4110051e-08 3.4443357e-07 2.2295252e-08
0000e0 e0 96 cf 31 26 48 c9 33 f1 cf 34 32 7a f2 09 32
       6.0416454e-09 9.3729156e-08 1.0524659e-08 8.029582e-09
0000f0 80 f8 04 34 4f a4 a4 34 81 d4 a5 33 ad a2 50 32
       1.2383862e-07 3.066693e-07 7.7220655e-08 1.2144182e-08
000100 2f ce c4 30 f4 3b 18 33 f4 df 62 32 34 f4 92 32
       1.4319478e-09 3.5444785e-08 1.3205852e-08 1.7107688e-08
000110 27 96 8b 32 5f 69 01 30 85 b4 1f 33 42 5a e4 32
       1.6250011e-08 4.707967e-10 3.7184254e-08 2.6583738e-08
000120 ad ee c3 32 ae 08 fe 33 a4 97 cf 32 0c 80 c3 31
       2.2809525e-08 1.18293755e-07 2.416693e-08 5.689804e-09
000130 35 eb 24 34 63 f5 d7 2f 0a 8b 9c 30 0d d9 f4 2c
       1.5359258e-07 3.928263e-10 1.1390011e-09 6.9589946e-12
000140 3f 86 9f 30 5d b0 17 33 0b 6c d9 30 36 f9 3b 30
       1.1606928e-09 3.531783e-08 1.5819536e-09 6.8384354e-10
000150 f5 7e 8f 30 fd 79 f3 30 44 3b 34 30 8c 69 a6 2f
       1.0440703e-09 1.7715248e-09 6.556784e-10 3.027022e-10
000160 46 2e a3 30 bc 21 ec 2d 0a c3 58 2f 3e 39 cd 30
       1.1872963e-09 2.6845075e-11 1.9714377e-10 1.4931982e-09
000170 fb 1b 39 2d 8b 3f 25 2f 10 cc 7c 2f b8 11 94 2f
       1.0522245e-11 1.5029238e-10 2.2991764e-10 2.6933633e-10
000180 13 01 d7 30 56 63 f3 2f 16 0b 77 2e 71 9b 99 2e
       1.5643614e-09 4.4272025e-10 5.6171144e-11 6.9852464e-11
000190 53 e8 74 2e 45 97 5a 2f 39 2f 15 2f 6a 99 92 2f
       5.5685522e-11 1.9880726e-10 1.3568248e-10 2.6666253e-10
0001a0 2f 5a 9e 2d 0d 78 c2 2f 78 2c b1 2e 38 1e 88 2f
       1.800257e-11 3.5373696e-10 8.0569273e-11 2.4759728e-10
0001b0 ab 62 96 2f 0f 89 39 2e 8e 16 95 2f 28 bf 20 2f
       2.735495e-10 4.2185862e-11 2.7118968e-10 1.4619828e-10
0001c0 9c 54 1e 2e 08 69 3a 2f d2 14 37 30 32 74 45 2f
       3.600019e-11 1.6953916e-10 6.66046e-10 1.7958326e-10
0001d0 96 9e da 2f 7a 04 25 2f a5 0d 49 30 e1 2e b3 2c
       3.976665e-10 1.5008253e-10 7.3142764e-10 5.0926906e-12
0001e0 e7 55 1e 27 f1 93 3c 27 08 ed 88 28 db d1 7b 28
       2.1973472e-15 2.617044e-15 1.5201829e-14 1.3978804e-14
0001f0 bb 26 a0 28 b3 bd 7c 29 bf 0e e2 28 dc 0e 1f 29
       1.7780365e-14 5.6119778e-14 2.5097435e-14 3.531798e-14
000200 94 d2 bc 28 a8 cf 1d 29 86 c6 0a 29 d6 93 29 29
       2.0963517e-14 3.5041116e-14 3.0814347e-14 3.7653765e-14
000210 96 06 0f 28 93 3b 87 29 9b 49 7e 29 73 6a 6f 29
       7.939523e-15 6.005539e-14 5.6463172e-14 5.316099e-14
000220 78 40 12 27 d5 46 05 29 c0 d8 90 28 a7 54 9b 28
       2.0296519e-15 2.959337e-14 1.6081212e-14 1.7245169e-14
000230 16 df 88 27 76 72 27 28 30 0f 04 29 94 fe bc 29
       3.7989453e-15 9.295182e-15 2.932306e-14 8.3930394e-14
000240 fb f0 d7 28 8b 51 27 27 5f f3 18 28 59 79 70 29
       2.3974304e-14 2.322011e-15 8.490468e-15 5.3395957e-14
000250 a7 b8 5b 29 49 d3 5e 29 9c b3 a9 28 bc 59 55 29
       4.878793e-14 4.9477163e-14 1.8840662e-14 4.7373333e-14
000260 1d 84 11 29 51 63 3c 29 ce e5 37 29 04 11 c3 28
       3.2311058e-14 4.183053e-14 4.0833486e-14 2.1656728e-14
000270 b6 77 e9 28 a9 a8 23 28 f5 13 71 29 64 94 02 29
       2.5920113e-14 9.08489e-15 5.353006e-14 2.8994507e-14
000280 b6 96 f8 2b 0e 06 cf 31 8a 58 0c 2f b3 a5 97 30
       1.766329e-12 6.0251812e-09 1.2764381e-10 1.103379e-09
000290 ca 18 6c 2c 4f 72 20 30 8e 48 78 30 20 81 2d 2e
       3.3551378e-12 5.8370103e-10 9.032498e-10 3.9450332e-11
0002a0 06 5b 19 30 e5 5b f8 2a b7 86 13 2e c1 cc b5 2e
       5.579043e-10 4.4117414e-13 3.354358e-11 8.2672987e-11
0002b0 5c f1 b9 2a 4b 66 f8 2c ce 3d d8 2f b5 6f 12 2b
       3.3030078e-13 7.0599407e-12 3.9334086e-10 5.2024644e-13
0002c0 3b 6b 7d 2e 50 7f ab 2e b6 66 2a 2c 75 6f 9e 2c
       5.762078e-11 7.798795e-11 2.421547e-12 4.5030043e-12
0002d0 c5 a9 3e 2f d6 b0 00 2f c2 78 85 2d 08 5f cc 2d
       1.7340714e-10 1.1704357e-10 1.5173977e-11 2.3234317e-11
0002e0 9a 2b 8b 2c e5 98 95 2d 2d ee 78 2a c2 e7 1d 2d
       3.9554584e-12 1.7007238e-11 2.2109459e-13 8.975877e-12
0002f0 5b f1 f5 2d 30 73 53 2c 78 1b 1b 2e ad 3e fb 2d
       2.7960459e-11 3.0048845e-12 3.5267317e-11 2.856323e-11
000300 83 2c 0b 2e 71 73 89 2e 9b 02 21 2e db 3e 3a 2b
       3.1644475e-11 6.250545e-11 3.6609476e-11 6.6167704e-13
000310 31 c0 0c 2e ba b0 d4 2b d5 49 d6 2d 73 46 da 28
       3.2003015e-11 1.5112557e-12 2.4361771e-11 2.4233414e-14
000320 8f 9c 3d 26 b1 8e 0b 27 b0 0a 84 26 4b a1 dd 26
       6.5784724e-16 1.9367478e-15 9.162237e-16 1.5378674e-15
000330 4b 94 94 26 78 73 23 26 a0 8d 84 25 4a 8c 80 25
       1.0309758e-15 5.6708475e-16 2.299432e-16 2.2299524e-16
000340 6c cb b1 24 a4 2f 95 26 d7 c1 6e 25 e4 14 14 26
       7.7106124e-17 1.0351865e-15 2.0708885e-16 5.1376127e-16
000350 9c 09 93 25 01 72 af 25 c1 49 8c 24 1a e6 9c 25
       2.5506947e-16 3.0434913e-16 6.0840266e-17 2.721761e-16
000360 aa f5 95 24 6e 7e 85 24 70 55 7a 24 bb e1 5e 24
       6.503462e-17 5.7893736e-17 5.4282477e-17 4.8329778e-17
000370 9b 12 56 25 7c e3 5d 25 23 95 c5 24 bb 31 33 25
       1.8567845e-16 1.9245769e-16 8.568778e-17 1.5542624e-16
000380 4c d5 f5 24 4c bf 46 24 ea e0 6c 26 06 df b7 24
       1.0661315e-16 4.309644e-17 8.2183763e-16 7.9741415e-17
000390 92 b8 1b 26 1a 00 a3 24 fd 65 65 25 aa 05 ce 25
       5.4026567e-16 7.0690154e-17 1.9897139e-16 3.5739142e-16
0003a0 18 0d b3 26 39 a3 c8 25 4a 58 bd 23 c4 11 bf 24
       1.2424169e-15 3.4805073e-16 2.0528813e-17 8.286314e-17
0003b0 8a 4d 19 24 86 b3 9f 24 b8 aa 2e 25 72 c9 70 24
       3.3242265e-17 6.925938e-17 1.5149936e-16 5.2212335e-17
0003c0 95 af 68 2d 61 a0 89 2e e1 d1 ee 2b 45 7c 05 2e
       1.322666e-11 6.258528e-11 1.696917e-12 3.0351072e-11
0003d0 20 0e 6e 2c 21 f6 33 2d 5e 51 ad 2d 1b b7 53 2b
       3.3829675e-12 1.0229624e-11 1.9703957e-11 7.521637e-13
0003e0 3d 8b 22 2d 90 80 58 2a 51 bc fc 2a 87 67 e2 2b
       9.239551e-12 1.9229258e-13 4.4894863e-13 1.6087e-12
0003f0 57 f8 aa 2a 08 c1 97 2a 7b f4 0f 2d e0 6e 28 2a
       3.0370387e-13 2.695693e-13 8.1828945e-12 1.4959865e-13
