src/python/wake-word/neuralnet/wake_word_model.pt (torch, 47883 bytes, 7 tensors)

weight f4 [40]
00000000: a3f5 8040 254e 2f40 ee57 a43f 1ee8 6340
00000010: 4f24 1440 a076 87bf 7284 2840 6fa8 c7be
00000020: c560 07c0 2356 ce3e 50a6 b5bd 882c d2bf
00000030: 2fdb 03bf a639 813f 7971 6ec0 5092 1840
00000040: ca2e 7cc0 6a31 3440 273c 1ebf 7463 9d3f
00000050: c0b7 02c0 9393 23c0 30d0 df3f c506 90bf
00000060: 227c 4d3f 8bb3 35c0 93ac 45c0 8afe e7bf
00000070: 4020 2dbf adc6 10bf 8cce e4be 466f 413e
00000080: 6275 cbbf 5f54 3740 0c17 0cc0 fc62 cebf
00000090: 0201 89c0 db5d edbf 1f4a 17c0 5a16 273f
4.029985 2.7391446 1.2839334 3.5610423 2.314716 -1.0583076 2.6330838 -0.38995692
-2.1152813 0.40300092 -0.08869612 -1.641984 -0.5150632 1.0095718 -3.7256758 2.3839302
-3.9403558 2.815516 -0.61810535 1.2295976 -2.0424652 -2.5558822 1.7485409 -1.1252066
0.80267537 -2.8390834 -3.088658 -1.8124554 -0.67627335 -0.56553155 -0.44688833 0.18890104
-1.5895197 2.8645246 -2.1889067 -1.6123958 -4.281373 -1.8544267 -2.363899 0.6526848

bias f4 [40]
00000000: 02f9 09bd 049f c2bc 6205 06bf 0ef7 6bbd
00000010: 8b05 7cbf 7f26 1540 63dc 80bf 144e 4b3f
00000020: 79c5 42bf 84f3 e6bd 71f4 70bf 482e ba3f
00000030: 0d6c 73bd 18b2 1c3f 4b11 e53f b13e 2c3f
00000040: 34a2 c83e 1c04 d33e c2f0 3cbe 94b1 93be
00000050: d3f5 2e3f a29a 943f 6dfb 2a3f b950 5c3f
00000060: 148c b73e ab75 673f cad4 6b3f 3ca1 9c3f
00000070: 3474 8f3f e3e2 d83e 7bb3 8b3f 19b6 51bf
00000080: 6f1d 7c3e 4ff7 603e ec9b d33f 8b01 223f
00000090: 63a2 3c3f c896 123f f34c 8b3f 1ee1 313c
-0.033684738 -0.023757465 -0.52351964 -0.057608657 -0.9844596 2.3304746 -1.0067257 0.7941601
-0.7608257 -0.11276916 -0.9412299 1.4545374 -0.059429217 0.6120925 1.7895902 0.6728316
0.3918625 0.41214073 -0.18451217 -0.2884642 0.6834385 1.160969 0.66789895 0.86060673
0.3584906 0.9041392 0.92121565 1.2236705 1.1207337 0.423606 1.0914148 -0.81918484
0.24620603 0.2196934 1.6531959 0.63283604 0.7368528 0.57261324 1.0882858 0.010856895

weight_ih_l0 f4 [128, 40]
00000000: b36c 56be 0c1c 233c 386d 45bd d117 5fbe
00000010: 5b59 1a3e e68d 9d3d 2453 9b3c ab62 b33d
00000020: 4113 8dbd f4d8 a0bd 0032 19bd c06f 963e
00000030: 1463 e5be b180 083e 40c3 033e 9814 573e
00000040: ba60 c43e 5053 483d 0245 d93b 1141 243c
00000050: 22c3 0fbb 35f6 953d a6d1 533d 9d02 9d3c
00000060: adfd bf3d eb3b 9ebd 51c7 8b3c 696e 3d3e
00000070: 9fbc 903d de91 093e 5950 223d 423d 02bd
00000080: 266d dfbe ea30 693e 1039 663d b292 e13c
00000090: 0fc3 a13b cff8 f93d 9a7e d03e 799b 36be
000000a0: 9cad 9bbf b17e 73bf 4fe9 70bf 50c3 88bf
000000b0: b802 5bbf abef 9e3f 4f94 82be 93a7 06bd
000000c0: e4fe 853f 69d3 353f b029 97bf 2d8e 823f
000000d0: 3306 7c3f b179 863f faef 893f dbbc 973f
000000e0: b288 d2be 48db 9f3f 047c b9bf cf0b 89bf
000000f0: ef6e 6b3f 8dcf 863f aa32 743f 46e6 7b3f
00000100: 12d6 733f 0ea4 653f 9601 813f 2233 8d3f
00000110: de7a 873f 082c 4ebf ff49 9e3f 38c5 5e3e
00000120: 97cf 563f b347 7fbe f25c 803f d610 643f
00000130: 9e31 793f f6eb 853f b0dd a03f 5541 2e3f
00000140: 0f68 98bf a54b 8ebf 0773 bfbe 9050 63bf
00000150: 8c93 e5be 6205 403f ac75 b23f 8c93 83bf
00000160: 2065 69be 4e99 92bf ef9f fcbe 42d9 c93e
00000170: 42de 6c3e ae0d 333e 15b0 a23e 07d9 723d
00000180: a347 4c3f 6291 4f3f be5d 83bf 782c b3be
00000190: 5c89 4fbd 0f86 e03e 766b 893e 4a84 b63e
000001a0: de10 f73e 5d91 00c0 73d1 28bf 950e 0d3f
000001b0: eb8a 973e a793 453f 6763 083f a20e 81bf
000001c0: 7d4d 3fbf caa5 6f3f de91 ea3e 3882 4f3e
000001d0: 2983 c23d 31fc 613f 36ee 5c3f 6e4a 05bf
000001e0: fe33 dabf aa19 74bf c712 8cbf e9cd 64bf
000001f0: eaf6 7abf 7dbe 643f 7055 26bf e659 4f3e
00000200: 6d1d 3abf 59b3 dbbe ca16 87bf 3dbf a43f
00000210: dab2 ad3f 0c45 8b3f 5791 883f 2fac 843f
00000220: 2a6e d93e 65d9 823f 5271 33bf 1998 a8bf
00000230: 1163 bf3f 2d69 9c3f a4ba 973f 927c 9d3f
00000240: 03cb 6f3f 663d 0440 1dec cb3f 8cc9 783f
00000250: ede9 8a3f dec2 af3e 176d 8b3f 97a3 29bf
00000260: 45fd b9be ba6a 293f 4f0e 7e3f 4e73 823f
00000270: c568 aa3f 50ad 6d3f 61b6 893f c22c 03bf
00000280: b61f 9bbc c027 8c3a 7bf4 3dbd 7ceb afbd
00000290: 3731 54be b07c 2ebc c17f 173d e8d6 59be
000002a0: 269b 853d 6aaa a03d 82c9 a4bd f1d9 5d3d
000002b0: 2026 0c3e ff2a 253d f464 1c3e 71ae dc3d
000002c0: fa20 2e3c f4e5 203d 5091 443c ec92 093d
000002d0: 6645 3f3d 1710 11bc b684 283e cda1 fd3d
000002e0: 2a99 9d3d d1bb 003d 80b9 febd cc9e bf3b
000002f0: b1de 583d 54b6 063d 5261 4c3d 4765 e63c
00000300: 1da6 babb d2d7 24bc 55d7 093e 4b4f bc3c
00000310: 95a2 433c 8ebe be3d 4635 1c3e 479f aa3d
00000320: 0ec0 2a3e dc93 d2bd 7233 5bbd 7230 bbbe
00000330: 27bd 2cbd 9bab ba3e cda6 c23d 0dbc 1d3f
00000340: 33a5 dabe f6fd bdbd be72 ecbe 59f8 833e
00000350: c216 8fbe 4be5 e93e 426b 553f 67c0 3a3f
00000360: 7a61 843e d9a5 093f 323c fb3c 5d8a c6be
00000370: f801 93be 8db9 433e 8f84 48be ec7d 143f
00000380: 338a c13e 0fa8 f6be f1e8 d5bd 4e3d 4a3f
00000390: a8da cb3e eded 5c3f b072 ca3e ba12 97be
000003a0: 9398 3dbb 4083 603e 351f 3e3e 6d85 53bd
000003b0: a270 f73e 6812 113f 1feb 1c3f 48f8 89bf
000003c0: 700f d43d c63c 6b3d 1189 303e d06f 7d3e
000003d0: c8e9 1f3e 2152 10bf 1677 c6bd 2539 bfbe
000003e0: 3a59 3cbd 7f34 163d 1d18 d13e 7590 00be
000003f0: dfa7 41bd e651 d1be 2912 18bf 74a6 c8be
-0.20939903 0.009955417 -0.048199862 -0.21786429 0.15073149 0.076930806 0.018960543 0.08759054
-0.06888438 -0.078538805 -0.0374012 0.29382133 -0.44802153 0.13330342 0.1286745 0.2100395
0.38355047 0.048907578 0.006630541 0.010025279 -0.0021936377 0.07322351 0.05171361 0.019166285
0.09374557 -0.07726272 0.017062815 0.1849915 0.070672266 0.1343455 0.039627407 -0.0317967
-0.4363796 0.22772565 0.056206763 0.02753577 0.004936583 0.122056596 0.4072159 -0.17832746
-1.2162356 -0.9511519 -0.94106 -1.0684605 -0.85551023 1.2416891 -0.25503775 -0.032874655
1.0468411 0.7102571 -1.1809597 1.0199639 0.9844696 1.0505887 1.077636 1.1854509
-0.41119915 1.2488794 -1.4490972 -1.0706729 0.91966146 1.053209 0.9538981 0.98398244
0.9524852 0.8970345 1.0078609 1.103123 1.0584371 -0.80535936 1.2366332 0.2175492
0.83910507 -0.24929695 1.0028365 0.8908819 0.97341335 1.0462635 1.2567654 0.6806844
-1.1906756 -1.1116835 -0.37392446 -0.88794804 -0.44839132 0.75008214 1.3942161 -1.0279403
-0.22792482 -1.1453035 -0.4934077 0.39423567 0.2313166 0.17485687 0.31774965 0.059289005
0.7979681 0.8108121 -1.0262983 -0.34994864 -0.050668105 0.4385228 0.268398 0.35647804
0.48255056 -2.0088723 -0.65944594 0.55100375 0.29598173 0.77178425 0.53276676 -1.008259
-0.7472761 0.9361235 0.45814413 0.20264518 0.09497673 0.8827544 0.8630098 -0.52066696
-1.7047117 -0.9535166 -1.094323 -0.89376694 -0.9803301 0.8935316 -0.6497412 0.20249137
-0.7270115 -0.4291027 -1.055383 1.2870861 1.3570206 1.0880446 1.0669354 1.0365046
0.4246686 1.0222594 -0.7009479 -1.3171417 1.4952108 1.2219597 1.1853833 1.2303641
0.93669146 2.0662475 1.5931431 0.97182536 1.0852638 0.3432836 1.0892667 -0.66265243
-0.36326042 0.66178477 0.99240583 1.0191438 1.3313223 0.9284258 1.0758783 -0.5124017
-0.01893602 0.0010692999 -0.046375733 -0.08589837 -0.20721899 -0.010649845 0.03698707 -0.21273386
0.06523733 0.07845004 -0.08046247 0.054162923 0.13686419 0.040324207 0.15272886 0.107754596
0.010627979 0.0392818 0.011997536 0.03358738 0.046697043 -0.008853934 0.16456875 0.12384377
0.07695229 0.031429116 -0.12437725 0.0058477875 0.05294675 0.032888725 0.0498975 0.028124465
-0.005696072 -0.010061221 0.13461049 0.022987029 0.011940618 0.09313689 0.15254697 0.08331161
0.16674826 -0.10282108 -0.05351586 -0.36560398 -0.042172577 0.3645905 0.09504471 0.6161507
-0.42704162 -0.09276955 -0.4618129 0.25775412 -0.2794705 0.4568275 0.8336679 0.7294983
0.2585562 0.5376869 0.030668352 -0.38777438 -0.2871244 0.19113751 -0.19581817 0.5800464
0.3780075 -0.48175094 -0.10444821 0.78999794 0.3981526 0.86300546 0.39540625 -0.29506475
-0.0028930053 0.21925068 0.18566592 -0.051640917 0.4832812 0.5666871 0.61296266 -1.0778894
0.10354507 0.057431005 0.17239787 0.24749684 0.15616524 -0.5637532 -0.096906826 -0.37348285
-0.04598353 0.036671158 0.4083871 -0.12555106 -0.047279235 -0.40882796 -0.5940271 -0.39189494

weight_hh_l0 f4 [128, 32]
00000000: 2e1e a0bc c69c 613e 5c99 763e 75db 533b
00000010: bc43 bcbc a293 873d 946e abbd f28c 99bd
00000020: ba24 85be c9d0 123d 6ad6 ae3d 8199 cf3b
00000030: daca 12bc e5e1 e6bc 2049 babd ed49 8d3e
00000040: 82b9 3abe fdd9 903c 4ef1 b2be 0156 693d
00000050: 19a3 a0be 95b8 7e3d 275a 82bd 0570 003d
00000060: 7df6 c8bc e6a0 4f3d b039 f8bd 4712 1abd
00000070: f4cc c3bb 4adc afbd bd3b 0a3b d5f9 9bbd
00000080: 38cc 713c 6a50 6a3f 275f 64bf e469 75bf
00000090: 639c 173d 55a3 42be 2398 b8bd 9070 70bf
000000a0: 6706 80bf 1000 813f f1fa 0940 8072 1bbe
000000b0: 9194 84bf 3500 bbbc be80 713f c914 74bf
000000c0: 3fe0 99bf 7b96 163f 924f 7e3f f671 6dbf
000000d0: 27e2 63be dc1a 723f e822 2cbe 9fea ce3e
000000e0: 570a 40bf d33f 733f e069 26c0 1ec3 71bf
000000f0: 4873 8a3f 21cb 413c f37d 28bf e173 9e3d
00000100: 3843 92be c748 1e3f 2600 183f 7124 b13d
00000110: 11c4 19be 769e c53d 3a88 e53d f77f 1abf
00000120: e6ff 99be 29f6 9b3f b661 8f3e 409d b03d
00000130: 45f8 38bf 79a9 f2bc e8ae cb3d 01ad 623f
00000140: 4f6c 68be fc53 ddbd 0dce 0b3e c9f7 02bd
00000150: cc8b 7abf e936 79bf 0740 91bd ecad 84bd
00000160: 973b 45bf d54f cc3d f6ad 1c3f c4d2 3ebf
00000170: 5027 21bf 14b3 7fbc e9c0 2b3f 3665 2fbe
00000180: 5b4f 593e 11f3 613f 1291 adbf 7888 233f
00000190: b259 b23e abea ad3c 15bf 90bd 32a3 4cbf
000001a0: b0d1 94bf 33a9 953f e80a 00bd 2a17 933c
000001b0: 17f3 af3e b815 8e3c 6e98 993f c341 febb
000001c0: fd9f eb3c ae69 063f 8309 943f c132 90bf
000001d0: fef8 2f3d a541 4b3d eeb5 73bf afe5 22bd
000001e0: 2592 aebc 43cb 913f 71b1 b2bc f9fd 82bf
000001f0: f4ff c3bc c5c1 6abd 58eb 53be b2a6 8fbd
00000200: 77ce a73d ca49 96bc 20c9 1c3d 7a67 b83d
00000210: 78ba c5bc 2254 74bd 1b48 763d efae 993d
00000220: 6aa0 4fbc 3557 a93d 25c7 de3d 7416 cabc
00000230: 02af 573d 8fd4 bbbc 42e9 03bd 4df8 b93b
00000240: 3fad 9fbc 92b7 24bd e2ec ff3d 3bf5 0cbe
00000250: b15b 83bc b177 69bc 4324 903d bd38 6c3d
00000260: cc35 c93b 90f6 633d 4503 f8bb d335 a53c
00000270: 2c2b ce3c 6732 3c3c 12f6 2ebd 5443 a53d
00000280: 137c 003e 7b0b df3e 1347 97bd 3591 423c
00000290: 6823 2e3d d0ac 283d 0cb6 18bc 9dcd c8bd
000002a0: 21a1 eabd 66ef 043e 7ab8 df3e c5f3 a9bb
000002b0: a102 e5bc 4bbe 8cbc 66b8 c3be ce7f b23c
000002c0: 13da 0d3d 95b1 8d3d d61e 9cbd b6d3 4cbe
000002d0: 4f28 8e3c e190 0dbd 8678 81bd f514 073d
000002e0: f9ca 093c d179 aa3d 8f93 c0be 9b26 1dbe
000002f0: 97e1 b6bb 33f0 5f3c 4e60 43bc 23c6 eb3c
00000300: f57a 56be af01 80bf ca0a 933d 7425 773e
00000310: d42a 52bd 21c8 0c3c 73e6 273e 476c 773e
00000320: 34ba 183e 4050 ddbe 1b9e 813d 60ad 73bc
00000330: 9856 f8bc c091 efbc 5fa8 05be c27c cebe
00000340: 11a7 91bd 1dc3 033e 2ac1 6fbe dd77 723d
00000350: 43d3 ac3d e9de 113e 645b af3e 8165 96bd
00000360: e7b6 9e3c 5e1b 6abe 58fd 103e 02bc 6c3e
00000370: f111 4a3f 869e efbc 369b bebd f8fa a4bd
00000380: 9104 be3d 706b 703f 1445 cbbe 0004 44bf
00000390: e4c1 80bc e000 43bc f012 0a3e ed31 cebe
000003a0: ad6f 0dbf d1ce 653f e3af c83c 6649 ff3e
000003b0: fd02 aa3e e801 c3bc a30a 3f3f 79f3 8f3e
000003c0: 546d 9ebd 3f0e 8dbe 0ddc 523f 4c1d 6fbf
000003d0: 01b7 553e 01a4 b1bd 43c5 14bd 0d9b 81bd
000003e0: af60 0f3d c836 263f 363e 523d 3f51 25bf
000003f0: 932f 82bd ebbf 6e3d fc32 bcbd f366 a93d
-0.01954564 0.2203246 0.2408194 0.0032326852 -0.022981517 0.066199556 -0.083707005 -0.07497586
-0.26004583 0.035843644 0.0853699 0.0063354378 -0.008959496 -0.028183887 -0.09095979 0.27595463
-0.18234828 0.01768207 -0.34949726 0.056966785 -0.31374434 0.06218775 -0.063648514 0.03135683
-0.024531597 0.050690554 -0.12120378 -0.037615087 -0.00597536 -0.08586939 0.0021092736 -0.07616011
0.014758162 0.9152895 -0.8920769 -0.958647 0.037014376 -0.19007619 -0.09013393 -0.93921757
-1.0001954 1.0078144 2.1559412 -0.15180397 -1.0357839 -0.022827247 0.9433707 -0.95344216
-1.202156 0.58823365 0.99340165 -0.92752016 -0.22254239 0.94572234 -0.1681019 0.40413377
-0.7501578 0.95019263 -2.600212 -0.9443835 1.0816431 0.011828215 -0.65817183 0.07736946
-0.2856691 0.618298 0.59375226 0.08649529 -0.150162 0.09649365 0.11207624 -0.6035151
-0.30078048 1.2184497 0.28004235 0.08623743 -0.7225383 -0.029621826 0.0994547 0.88545233
-0.22697566 -0.108070344 0.13652821 -0.031974588 -0.97869563 -0.9734941 -0.0709229 -0.064784855
-0.7704405 0.09976164 0.61202943 -0.7454035 -0.6295061 -0.01560666 0.6709123 -0.17128453
0.21221678 0.88261515 -1.3559897 0.6388011 0.34834057 0.021230062 -0.07067696 -0.79936516
-1.1626492 1.169226 -0.0312604 0.017955381 0.3436515 0.01734434 1.1999643 -0.0077593043
0.028762812 0.52505004 1.1565403 -1.1265489 0.042962067 0.04962315 -0.9519948 -0.039769825
-0.021309922 1.1390156 -0.021813126 -1.0233756 -0.023925759 -0.0573137 -0.20695245 -0.070142165
0.08193677 -0.018345732 0.038277745 0.090041116 -0.024136767 -0.059650548 0.06012736 0.07504069
-0.012672523 0.082685865 0.108778276 -0.02466891 0.052657135 -0.022928504 -0.032204874 0.0056753517
-0.01949179 -0.04021413 0.12496354 -0.13765423 -0.016034933 -0.014249728 0.070381664 0.057671297
0.0061404463 0.055655062 -0.007568749 0.020167267 0.02516707 0.011486626 -0.04271514 0.080694824
0.1254733 0.43563446 -0.07386603 0.01187544 0.042514235 0.04118043 -0.009320747 -0.098048426
-0.11456514 0.12981948 0.43695432 -0.0051865303 -0.027955355 -0.017180583 -0.38226622 0.021789458
0.0346318 0.06918637 -0.07623069 -0.20002636 0.017353205 -0.034561995 -0.06321816 0.03297897
0.008410209 0.08324016 -0.37612578 -0.15346758 -0.0055810916 0.013668108 -0.011924816 0.028781002
-0.20945342 -1.0000514 0.07179792 0.24135381 -0.051310375 0.008592636 0.16396503 0.24162398
0.14914781 -0.43225288 0.06328984 -0.014872879 -0.030314729 -0.029244304 -0.1305251 -0.40329558
-0.071119435 0.12867399 -0.2341353 0.05919634 0.084387325 0.1424519 0.34249413 -0.07343579
0.019374324 -0.22862002 0.14159143 0.23118594 0.78933626 -0.029250395 -0.09306948 -0.08055681
0.09278215 0.93913937 -0.3970114 -0.76568604 -0.015717454 -0.011902064 0.13483787 -0.40272465
-0.5524853 0.897687 0.024497932 0.49860686 0.33205405 -0.02380462 0.74625605 0.28115442
-0.077356964 -0.2754993 0.8236702 -0.9340408 0.20870592 -0.086738594 -0.036320936 -0.06328402
0.035004314 0.6492734 0.05132886 -0.64577097 -0.0635673 0.058288496 -0.09189412 0.08271589

bias_ih_l0 f4 [128]
00000000: 3870 513c dd9c 823f 275a 1f3d 6988 8c3f
00000010: 47e7 b03d 68ed e23d a011 d7bd 459a da3e
00000020: fb1b 95be 22d2 d3be 7a3d 2d3e b59c 1a39
00000030: 8707 93bf b3ad 3ebe 518b 9d3e b787 e4be
00000040: 5f2d b73e 20ba 8fbf 856a 35bc fdf2 873e
00000050: 80c7 e6bf fa7b 903f fd4f 353f 7c8e 2cbe
00000060: 527a e23c d191 27bf e536 bf3f 74ad 7e3b
00000070: 5e06 a23f 128d f5bd 4992 5b3e 7970 2abd
00000080: d43e 05bc b4ac 7e3f 7089 a03e e9cc 5abf
00000090: 11b6 b83d 2043 143e 77ff a0bd 1416 81bf
000000a0: 576f 4d3f 09a4 4ebe 29dd d03c 52bb 17bf
000000b0: 0ada 75bf 7711 89bd 25f7 f5be 5517 8c3f
000000c0: f54f 693e 7cb8 74bf 7e5c 1f3f 7c42 00bf
000000d0: 420f da3f dbae 973f df7f 0c3e b150 9f3d
000000e0: 6c11 a23c 6476 9ebe 6eef 18be 3a54 903d
000000f0: d861 633e ab41 9fbd e793 b63e 9c0f 0ebc
00000100: e873 e53d 781d 533f 4997 a5be af38 c2bd
00000110: bb7a 25bd ff79 843f 5536 f7bd 9396 83be
00000120: 50c4 88bf 223d 253e 335f 403e 1827 d5be
00000130: b6e0 793f 2355 3fbd ea0a 493d fdae 8d3d
00000140: 3cba 023e c34e bebc d6b3 66be e601 233f
00000150: 9494 05bf 8b0d fcbe 07ab d9bc d30b 9ebe
00000160: 58a8 ef3a 24d8 253d e8ef 7f3b 7851 043c
00000170: 8da2 6b3f b6a3 d9bd efe7 9fbd fb59 aabc
00000180: be90 80bf 2617 793f bb17 a53d e13a 88bf
00000190: 71d4 da3c 07ab 0ebf 5bf8 273d c87c fc3e
000001a0: 913a 4d3e c046 903f 562d 12be 258e 5f3e
000001b0: de8e 54bb b4d9 c0bd 76c3 6e3e a000 a9be
000001c0: 6b1b db3e 5099 3dbe 4fc3 813f 2d81 53be
000001d0: 78e3 1d3f c55d d3be 616f fbbe 6a73 ac3d
000001e0: 8414 bcbf 94f3 4e3e ba92 493f 1c5c 053f
000001f0: 35c3 b8bf 7869 60bd 438c 47bf 7497 2dbe
0.012783103 1.0204121 0.038904335 1.0979129 0.08637863 0.11080438 -0.105014086 0.42695823
-0.2912291 -0.41371256 0.16917983 0.00014744962 -1.1486672 -0.18620948 0.30770352 -0.44634792
0.35776803 -1.1228676 -0.0110727595 0.26552573 -1.8029633 1.1287835 0.7082518 -0.16851228
0.027646217 -0.65456873 1.4938627 0.003886071 1.2658193 -0.11989798 0.21442522 -0.04161117
-0.008132655 0.99482274 0.31354856 -0.8546892 0.090191014 0.14478731 -0.07861226 -1.0084863
0.80248016 -0.20179762 0.025496082 -0.59270203 -0.96035826 -0.06692784 -0.4804012 1.094462
0.22784407 -0.95594 0.62250507 -0.5010145 1.7035906 1.1850237 0.13720654 0.077790625
0.019783698 -0.309497 -0.14935085 0.07047315 0.22205293 -0.07776197 0.35659716 -0.008670714
0.11203748 0.8246684 -0.32341984 -0.09483468 -0.040400248 1.034973 -0.1207091 -0.25700817
-1.068491 0.16136602 0.18786316 -0.4163139 0.97608507 -0.046712052 0.049082674 0.06918142
0.12766355 -0.023230916 -0.2252954 0.6367477 -0.5217984 -0.49229082 -0.02657081 -0.30868396
0.0018284423 0.04048933 0.0039052907 0.008076064 0.9204491 -0.106269285 -0.0780791 -0.02079486
-1.0044172 0.97300947 0.08061167 -1.0642968 0.026712628 -0.55729717 0.041008335 0.4931395
0.20041873 1.1271591 -0.14275107 0.21831568 -0.0032433788 -0.094165236 0.2331675 -0.3300829
0.42794356 -0.18515515 1.0137728 -0.20654745 0.61675215 -0.41282478 -0.49108413 0.08420451
-1.4693761 0.20210105 0.7873951 0.5209367 -1.4434572 -0.054788083 -0.779484 -0.16952306

bias_hh_l0 f4 [128]
00000000: e2ff fa3a 92be 823f b192 1f3d 160b 8c3f
00000010: 04dd a73d 29a2 ea3d eedf d8bd c0f0 dc3e
00000020: 2995 97be 1a5b d7be f6b8 333e ec23 2bbc
00000030: 023b 92bf 76cb 46be 5a1a a33e 437f e4be
00000040: 4fbc b73e 56da 8ebf d1e7 0bbc de81 823e
00000050: d101 e6bf dd4d 8f3f 57fc 333f bafc 27be
00000060: 4947 d93c 0414 26bf ebfe be3f 945a 293c
00000070: 39bd a03f 4142 dcbd 35d1 663e 160c 35bd
00000080: a9d0 97bb 40af 7d3f 73bb 9b3e 99be 59bf
00000090: 57c0 bc3d 6dc6 0c3e 1b3c 9cbd 69fb 80bf
000000a0: 5fcb 4b3f 0e99 44be e38a ce3c 12cd 18bf
000000b0: b417 77bf 4182 98bd 59e7 f8be 23b6 8b3f
000000c0: 7f0d 743e 84ab 75bf a558 1f3f 2179 02bf
000000d0: 29ee d93f b074 983f e91c 0a3e bfd2 a83d
000000e0: 4ad9 ad3c e17d 9dbe 331f 1dbe cb23 9d3d
000000f0: d34b 623e 52b5 a4bd 7f08 b23e 873d 47bc
00000100: 690f f43d 8062 523f 41c8 a5be 5894 c7bd
00000110: bc59 2fbd 5962 833f 4243 f8bd ba84 81be
00000120: ac82 8abf 83be 243e a05b 413e 62cd d8be
00000130: 86de 7a3f 9554 37bd 61e4 343d bf23 8c3d
00000140: 2f91 053e fcf5 0cbd 260a 6abe 22c8 213f
00000150: 3605 03bf 95a6 febe 46da f5bc 8b66 9cbe
00000160: 822f 98bb f984 213d 1cf8 563c 922d 4c3c
00000170: 6ca2 6b3f 41ae c2bd c90c a5bd 1afe 91bc
00000180: fbe1 80bf cbeb 783f 9800 b03d d083 89bf
00000190: 78b9 fe3c f6ce 0ebf a685 343d 9b88 fd3e
000001a0: 8eed 4a3e f0b1 913f 5a6d 19be 47f7 673e
000001b0: dbb1 06bc dc89 babd 827f 6c3e 8bce a5be
000001c0: a7f8 d63e 04c6 44be 41bf 803f eef8 5dbe
000001d0: b164 1e3f 4e5e d6be 3eb8 00bf 941f b53d
000001e0: 445c bbbf f8ee 523e 2052 473f 1e85 053f
000001f0: 32cd b8bf 928f 81bd f327 46bf f846 24be
0.0019149745 1.0214407 0.038958255 1.0940883 0.08196452 0.11456711 -0.10589586 0.43152428
-0.29605988 -0.42061692 0.17551026 -0.010445576 -1.1424258 -0.19413552 0.31856042 -0.44628343
0.35885856 -1.1160381 -0.008539156 0.25489706 -1.7969304 1.1195637 0.70306915 -0.16405001
0.02652325 -0.6487429 1.4921545 0.010336537 1.2557746 -0.107548244 0.22540744 -0.04420098
-0.0046330285 0.99095535 0.3041645 -0.85056454 0.092163734 0.13747568 -0.07628652 -1.0076724
0.79607195 -0.1919901 0.02521271 -0.5968791 -0.96520543 -0.07446719 -0.48614004 1.0914959
0.23833273 -0.9596484 0.62244636 -0.5096608 1.7025806 1.191061 0.13487591 0.082433216
0.021221776 -0.307601 -0.15343933 0.076728426 0.22099237 -0.080423966 0.34772107 -0.012160665
0.11917002 0.8218155 -0.32379344 -0.09745091 -0.042810187 1.0264388 -0.121222034 -0.25296575
-1.0821128 0.160883 0.18882608 -0.42344195 0.97995794 -0.044758398 0.04416311 0.068427555
0.13043664 -0.034414276 -0.22855434 0.63196003 -0.51179826 -0.49736467 -0.030011307 -0.30546984
-0.0046443352 0.039433453 0.013120677 0.012462037 0.9204471 -0.095058925 -0.08059079 -0.01782136
-1.0068964 0.9723479 0.08593863 -1.0743351 0.031094298 -0.5578455 0.04407277 0.49518284
0.19817182 1.1382427 -0.1498312 0.22652923 -0.008221115 -0.09108326 0.23095515 -0.32384142
0.41986582 -0.19216162 1.0058366 -0.2167699 0.6187239 -0.41868824 -0.5028113 0.08843914
-1.4637532 0.20598972 0.7785969 0.52156246 -1.4437621 -0.06326212 -0.7740471 -0.16042697

weight f4 [1, 32]
00000000: 1beb 4e3e a43e 15bf a2fe acbd 880f 43bf
00000010: b29a 513d c7f8 9bbe 8d36 77be 6cc4 3d3f
00000020: 515b c0bf 815e 813e fd80 bf3f c826 b5be
00000030: a8ca d4be 9d10 dabd 7e98 4ebf 4fea a83e
00000040: f163 46c0 dfc7 1ebf e245 edbe 6e17 2fbf
00000050: e8ee 2e41 7678 a03f 839b 7dbe 62a2 d3be
00000060: 363f 4cbf 878a cb3e 5e11 dfbf 9ab7 5cbf
00000070: b2c7 693f 74cc 4abd c524 08bf 80b8 b1bd
0.20206873 -0.58298707 -0.08447005 -0.76195574 0.05117292 -0.3046324 -0.24141903 0.7412784
-1.5027868 0.25267413 1.4961239 -0.3538115 -0.41560864 -0.106477 -0.80701435 0.32991263
-3.09985 -0.6202373 -0.4634238 -0.68395126 10.933327 1.2536762 -0.24766354 -0.41334826
-0.7978395 0.39754125 -1.7427175 -0.86217654 0.91320336 -0.049511388 -0.53181106 -0.08677769
